{"format": "graph-model", "generatedBy": "2.3.0", "convertedBy": "TensorFlow.js Converter v2.3.0", "userDefinedMetadata": {"signature": {"inputs": {"input_4:0": {"name": "input_4:0", "dtype": "DT_FLOAT", "tensorShape": {"dim": [{"size": "-1"}, {"size": "256"}, {"size": "256"}, {"size": "3"}]}}}, "outputs": {"Identity:0": {"name": "Identity:0", "dtype": "DT_FLOAT", "tensorShape": {"dim": [{"size": "-1"}, {"size": "256"}, {"size": "256"}, {"size": "3"}]}}}}}, "modelTopology": {"node": [{"name": "StatefulPartitionedCall/functional_9/conv2d_transpose_32/strided_slice/stack", "op": "Const", "attr": {"value": {"tensor": {"dtype": "DT_INT32", "tensorShape": {"dim": [{"size": "1"}]}}}, "dtype": {"type": "DT_INT32"}}}, {"name": "StatefulPartitionedCall/functional_9/conv2d_transpose_32/strided_slice/stack_1", "op": "Const", "attr": {"dtype": {"type": "DT_INT32"}, "value": {"tensor": {"dtype": "DT_INT32", "tensorShape": {"dim": [{"size": "1"}]}}}}}, {"name": "StatefulPartitionedCall/functional_9/conv2d_transpose_32/strided_slice/stack_2", "op": "Const", "attr": {"dtype": {"type": "DT_INT32"}, "value": {"tensor": {"dtype": "DT_INT32", "tensorShape": {"dim": [{"size": "1"}]}}}}}, {"name": "StatefulPartitionedCall/functional_9/conv2d_transpose_32/stack/1", "op": "Const", "attr": {"dtype": {"type": "DT_INT32"}, "value": {"tensor": {"dtype": "DT_INT32", "tensorShape": {}}}}}, {"name": "StatefulPartitionedCall/functional_9/conv2d_transpose_32/stack/2", "op": "Const", "attr": {"value": {"tensor": {"dtype": "DT_INT32", "tensorShape": {}}}, "dtype": {"type": "DT_INT32"}}}, {"name": "StatefulPartitionedCall/functional_9/conv2d_transpose_32/stack/3", "op": "Const", "attr": {"value": {"tensor": {"dtype": "DT_INT32", "tensorShape": {}}}, "dtype": {"type": "DT_INT32"}}}, {"name": "unknown_70", "op": "Const", "attr": {"value": {"tensor": {"dtype": "DT_FLOAT", "tensorShape": {"dim": [{"size": "4"}, {"size": "4"}, {"size": "3"}, {"size": "128"}]}}}, "dtype": {"type": "DT_FLOAT"}}}, {"name": "StatefulPartitionedCall/functional_9/sequential_68/conv2d_transpose_31/strided_slice/stack", "op": "Const", "attr": {"value": {"tensor": {"dtype": "DT_INT32", "tensorShape": {"dim": [{"size": "1"}]}}}, "dtype": {"type": "DT_INT32"}}}, {"name": "StatefulPartitionedCall/functional_9/sequential_68/conv2d_transpose_31/strided_slice/stack_1", "op": "Const", "attr": {"dtype": {"type": "DT_INT32"}, "value": {"tensor": {"dtype": "DT_INT32", "tensorShape": {"dim": [{"size": "1"}]}}}}}, {"name": "StatefulPartitionedCall/functional_9/sequential_68/conv2d_transpose_31/strided_slice/stack_2", "op": "Const", "attr": {"dtype": {"type": "DT_INT32"}, "value": {"tensor": {"dtype": "DT_INT32", "tensorShape": {"dim": [{"size": "1"}]}}}}}, {"name": "StatefulPartitionedCall/functional_9/sequential_68/conv2d_transpose_31/stack/1", "op": "Const", "attr": {"dtype": {"type": "DT_INT32"}, "value": {"tensor": {"dtype": "DT_INT32", "tensorShape": {}}}}}, {"name": "StatefulPartitionedCall/functional_9/sequential_68/conv2d_transpose_31/stack/2", "op": "Const", "attr": {"value": {"tensor": {"dtype": "DT_INT32", "tensorShape": {}}}, "dtype": {"type": "DT_INT32"}}}, {"name": "StatefulPartitionedCall/functional_9/sequential_68/conv2d_transpose_31/stack/3", "op": "Const", "attr": {"dtype": {"type": "DT_INT32"}, "value": {"tensor": {"dtype": "DT_INT32", "tensorShape": {}}}}}, {"name": "unknown_65", "op": "Const", "attr": {"value": {"tensor": {"dtype": "DT_FLOAT", "tensorShape": {"dim": [{"size": "4"}, {"size": "4"}, {"size": "64"}, {"size": "256"}]}}}, "dtype": {"type": "DT_FLOAT"}}}, {"name": "StatefulPartitionedCall/functional_9/sequential_67/conv2d_transpose_30/strided_slice/stack", "op": "Const", "attr": {"value": {"tensor": {"dtype": "DT_INT32", "tensorShape": {"dim": [{"size": "1"}]}}}, "dtype": {"type": "DT_INT32"}}}, {"name": "StatefulPartitionedCall/functional_9/sequential_67/conv2d_transpose_30/strided_slice/stack_1", "op": "Const", "attr": {"dtype": {"type": "DT_INT32"}, "value": {"tensor": {"dtype": "DT_INT32", "tensorShape": {"dim": [{"size": "1"}]}}}}}, {"name": "StatefulPartitionedCall/functional_9/sequential_67/conv2d_transpose_30/strided_slice/stack_2", "op": "Const", "attr": {"value": {"tensor": {"dtype": "DT_INT32", "tensorShape": {"dim": [{"size": "1"}]}}}, "dtype": {"type": "DT_INT32"}}}, {"name": "StatefulPartitionedCall/functional_9/sequential_67/conv2d_transpose_30/stack/1", "op": "Const", "attr": {"dtype": {"type": "DT_INT32"}, "value": {"tensor": {"dtype": "DT_INT32", "tensorShape": {}}}}}, {"name": "StatefulPartitionedCall/functional_9/sequential_67/conv2d_transpose_30/stack/2", "op": "Const", "attr": {"dtype": {"type": "DT_INT32"}, "value": {"tensor": {"dtype": "DT_INT32", "tensorShape": {}}}}}, {"name": "StatefulPartitionedCall/functional_9/sequential_67/conv2d_transpose_30/stack/3", "op": "Const", "attr": {"dtype": {"type": "DT_INT32"}, "value": {"tensor": {"dtype": "DT_INT32", "tensorShape": {}}}}}, {"name": "unknown_60", "op": "Const", "attr": {"value": {"tensor": {"dtype": "DT_FLOAT", "tensorShape": {"dim": [{"size": "4"}, {"size": "4"}, {"size": "128"}, {"size": "512"}]}}}, "dtype": {"type": "DT_FLOAT"}}}, {"name": "StatefulPartitionedCall/functional_9/sequential_66/conv2d_transpose_29/strided_slice/stack", "op": "Const", "attr": {"value": {"tensor": {"dtype": "DT_INT32", "tensorShape": {"dim": [{"size": "1"}]}}}, "dtype": {"type": "DT_INT32"}}}, {"name": "StatefulPartitionedCall/functional_9/sequential_66/conv2d_transpose_29/strided_slice/stack_1", "op": "Const", "attr": {"dtype": {"type": "DT_INT32"}, "value": {"tensor": {"dtype": "DT_INT32", "tensorShape": {"dim": [{"size": "1"}]}}}}}, {"name": "StatefulPartitionedCall/functional_9/sequential_66/conv2d_transpose_29/strided_slice/stack_2", "op": "Const", "attr": {"value": {"tensor": {"dtype": "DT_INT32", "tensorShape": {"dim": [{"size": "1"}]}}}, "dtype": {"type": "DT_INT32"}}}, {"name": "StatefulPartitionedCall/functional_9/sequential_66/conv2d_transpose_29/stack/1", "op": "Const", "attr": {"value": {"tensor": {"dtype": "DT_INT32", "tensorShape": {}}}, "dtype": {"type": "DT_INT32"}}}, {"name": "StatefulPartitionedCall/functional_9/sequential_66/conv2d_transpose_29/stack/2", "op": "Const", "attr": {"dtype": {"type": "DT_INT32"}, "value": {"tensor": {"dtype": "DT_INT32", "tensorShape": {}}}}}, {"name": "StatefulPartitionedCall/functional_9/sequential_66/conv2d_transpose_29/stack/3", "op": "Const", "attr": {"dtype": {"type": "DT_INT32"}, "value": {"tensor": {"dtype": "DT_INT32", "tensorShape": {}}}}}, {"name": "unknown_55", "op": "Const", "attr": {"value": {"tensor": {"dtype": "DT_FLOAT", "tensorShape": {"dim": [{"size": "4"}, {"size": "4"}, {"size": "256"}, {"size": "1024"}]}}}, "dtype": {"type": "DT_FLOAT"}}}, {"name": "StatefulPartitionedCall/functional_9/sequential_65/conv2d_transpose_28/strided_slice/stack", "op": "Const", "attr": {"value": {"tensor": {"dtype": "DT_INT32", "tensorShape": {"dim": [{"size": "1"}]}}}, "dtype": {"type": "DT_INT32"}}}, {"name": "StatefulPartitionedCall/functional_9/sequential_65/conv2d_transpose_28/strided_slice/stack_1", "op": "Const", "attr": {"dtype": {"type": "DT_INT32"}, "value": {"tensor": {"dtype": "DT_INT32", "tensorShape": {"dim": [{"size": "1"}]}}}}}, {"name": "StatefulPartitionedCall/functional_9/sequential_65/conv2d_transpose_28/strided_slice/stack_2", "op": "Const", "attr": {"dtype": {"type": "DT_INT32"}, "value": {"tensor": {"dtype": "DT_INT32", "tensorShape": {"dim": [{"size": "1"}]}}}}}, {"name": "StatefulPartitionedCall/functional_9/sequential_65/conv2d_transpose_28/stack/1", "op": "Const", "attr": {"value": {"tensor": {"dtype": "DT_INT32", "tensorShape": {}}}, "dtype": {"type": "DT_INT32"}}}, {"name": "StatefulPartitionedCall/functional_9/sequential_65/conv2d_transpose_28/stack/2", "op": "Const", "attr": {"dtype": {"type": "DT_INT32"}, "value": {"tensor": {"dtype": "DT_INT32", "tensorShape": {}}}}}, {"name": "StatefulPartitionedCall/functional_9/sequential_65/conv2d_transpose_28/stack/3", "op": "Const", "attr": {"dtype": {"type": "DT_INT32"}, "value": {"tensor": {"dtype": "DT_INT32", "tensorShape": {}}}}}, {"name": "unknown_50", "op": "Const", "attr": {"value": {"tensor": {"dtype": "DT_FLOAT", "tensorShape": {"dim": [{"size": "4"}, {"size": "4"}, {"size": "512"}, {"size": "1024"}]}}}, "dtype": {"type": "DT_FLOAT"}}}, {"name": "StatefulPartitionedCall/functional_9/sequential_64/conv2d_transpose_27/strided_slice/stack", "op": "Const", "attr": {"value": {"tensor": {"dtype": "DT_INT32", "tensorShape": {"dim": [{"size": "1"}]}}}, "dtype": {"type": "DT_INT32"}}}, {"name": "StatefulPartitionedCall/functional_9/sequential_64/conv2d_transpose_27/strided_slice/stack_1", "op": "Const", "attr": {"value": {"tensor": {"dtype": "DT_INT32", "tensorShape": {"dim": [{"size": "1"}]}}}, "dtype": {"type": "DT_INT32"}}}, {"name": "StatefulPartitionedCall/functional_9/sequential_64/conv2d_transpose_27/strided_slice/stack_2", "op": "Const", "attr": {"dtype": {"type": "DT_INT32"}, "value": {"tensor": {"dtype": "DT_INT32", "tensorShape": {"dim": [{"size": "1"}]}}}}}, {"name": "StatefulPartitionedCall/functional_9/sequential_64/conv2d_transpose_27/stack/1", "op": "Const", "attr": {"dtype": {"type": "DT_INT32"}, "value": {"tensor": {"dtype": "DT_INT32", "tensorShape": {}}}}}, {"name": "StatefulPartitionedCall/functional_9/sequential_64/conv2d_transpose_27/stack/2", "op": "Const", "attr": {"value": {"tensor": {"dtype": "DT_INT32", "tensorShape": {}}}, "dtype": {"type": "DT_INT32"}}}, {"name": "StatefulPartitionedCall/functional_9/sequential_64/conv2d_transpose_27/stack/3", "op": "Const", "attr": {"dtype": {"type": "DT_INT32"}, "value": {"tensor": {"dtype": "DT_INT32", "tensorShape": {}}}}}, {"name": "unknown_45", "op": "Const", "attr": {"dtype": {"type": "DT_FLOAT"}, "value": {"tensor": {"dtype": "DT_FLOAT", "tensorShape": {"dim": [{"size": "4"}, {"size": "4"}, {"size": "512"}, {"size": "1024"}]}}}}}, {"name": "StatefulPartitionedCall/functional_9/sequential_63/conv2d_transpose_26/strided_slice/stack", "op": "Const", "attr": {"value": {"tensor": {"dtype": "DT_INT32", "tensorShape": {"dim": [{"size": "1"}]}}}, "dtype": {"type": "DT_INT32"}}}, {"name": "StatefulPartitionedCall/functional_9/sequential_63/conv2d_transpose_26/strided_slice/stack_1", "op": "Const", "attr": {"value": {"tensor": {"dtype": "DT_INT32", "tensorShape": {"dim": [{"size": "1"}]}}}, "dtype": {"type": "DT_INT32"}}}, {"name": "StatefulPartitionedCall/functional_9/sequential_63/conv2d_transpose_26/strided_slice/stack_2", "op": "Const", "attr": {"value": {"tensor": {"dtype": "DT_INT32", "tensorShape": {"dim": [{"size": "1"}]}}}, "dtype": {"type": "DT_INT32"}}}, {"name": "StatefulPartitionedCall/functional_9/sequential_63/conv2d_transpose_26/stack/1", "op": "Const", "attr": {"value": {"tensor": {"dtype": "DT_INT32", "tensorShape": {}}}, "dtype": {"type": "DT_INT32"}}}, {"name": "StatefulPartitionedCall/functional_9/sequential_63/conv2d_transpose_26/stack/2", "op": "Const", "attr": {"dtype": {"type": "DT_INT32"}, "value": {"tensor": {"dtype": "DT_INT32", "tensorShape": {}}}}}, {"name": "StatefulPartitionedCall/functional_9/sequential_63/conv2d_transpose_26/stack/3", "op": "Const", "attr": {"dtype": {"type": "DT_INT32"}, "value": {"tensor": {"dtype": "DT_INT32", "tensorShape": {}}}}}, {"name": "unknown_40", "op": "Const", "attr": {"dtype": {"type": "DT_FLOAT"}, "value": {"tensor": {"dtype": "DT_FLOAT", "tensorShape": {"dim": [{"size": "4"}, {"size": "4"}, {"size": "512"}, {"size": "1024"}]}}}}}, {"name": "StatefulPartitionedCall/functional_9/sequential_62/conv2d_transpose_25/strided_slice/stack", "op": "Const", "attr": {"dtype": {"type": "DT_INT32"}, "value": {"tensor": {"dtype": "DT_INT32", "tensorShape": {"dim": [{"size": "1"}]}}}}}, {"name": "StatefulPartitionedCall/functional_9/sequential_62/conv2d_transpose_25/strided_slice/stack_1", "op": "Const", "attr": {"value": {"tensor": {"dtype": "DT_INT32", "tensorShape": {"dim": [{"size": "1"}]}}}, "dtype": {"type": "DT_INT32"}}}, {"name": "StatefulPartitionedCall/functional_9/sequential_62/conv2d_transpose_25/strided_slice/stack_2", "op": "Const", "attr": {"value": {"tensor": {"dtype": "DT_INT32", "tensorShape": {"dim": [{"size": "1"}]}}}, "dtype": {"type": "DT_INT32"}}}, {"name": "StatefulPartitionedCall/functional_9/sequential_62/conv2d_transpose_25/stack/1", "op": "Const", "attr": {"dtype": {"type": "DT_INT32"}, "value": {"tensor": {"dtype": "DT_INT32", "tensorShape": {}}}}}, {"name": "StatefulPartitionedCall/functional_9/sequential_62/conv2d_transpose_25/stack/2", "op": "Const", "attr": {"dtype": {"type": "DT_INT32"}, "value": {"tensor": {"dtype": "DT_INT32", "tensorShape": {}}}}}, {"name": "StatefulPartitionedCall/functional_9/sequential_62/conv2d_transpose_25/stack/3", "op": "Const", "attr": {"value": {"tensor": {"dtype": "DT_INT32", "tensorShape": {}}}, "dtype": {"type": "DT_INT32"}}}, {"name": "unknown_35", "op": "Const", "attr": {"dtype": {"type": "DT_FLOAT"}, "value": {"tensor": {"dtype": "DT_FLOAT", "tensorShape": {"dim": [{"size": "4"}, {"size": "4"}, {"size": "512"}, {"size": "512"}]}}}}}, {"name": "StatefulPartitionedCall/functional_9/concatenate_22/concat/axis", "op": "Const", "attr": {"value": {"tensor": {"dtype": "DT_INT32", "tensorShape": {}}}, "dtype": {"type": "DT_INT32"}}}, {"name": "StatefulPartitionedCall/functional_9/concatenate_23/concat/axis", "op": "Const", "attr": {"value": {"tensor": {"dtype": "DT_INT32", "tensorShape": {}}}, "dtype": {"type": "DT_INT32"}}}, {"name": "StatefulPartitionedCall/functional_9/concatenate_24/concat/axis", "op": "Const", "attr": {"dtype": {"type": "DT_INT32"}, "value": {"tensor": {"dtype": "DT_INT32", "tensorShape": {}}}}}, {"name": "StatefulPartitionedCall/functional_9/concatenate_25/concat/axis", "op": "Const", "attr": {"value": {"tensor": {"dtype": "DT_INT32", "tensorShape": {}}}, "dtype": {"type": "DT_INT32"}}}, {"name": "StatefulPartitionedCall/functional_9/concatenate_26/concat/axis", "op": "Const", "attr": {"value": {"tensor": {"dtype": "DT_INT32", "tensorShape": {}}}, "dtype": {"type": "DT_INT32"}}}, {"name": "StatefulPartitionedCall/functional_9/concatenate_27/concat/axis", "op": "Const", "attr": {"dtype": {"type": "DT_INT32"}, "value": {"tensor": {"dtype": "DT_INT32", "tensorShape": {}}}}}, {"name": "unknown", "op": "Const", "attr": {"value": {"tensor": {"dtype": "DT_FLOAT", "tensorShape": {"dim": [{"size": "4"}, {"size": "4"}, {"size": "3"}, {"size": "64"}]}}}, "dtype": {"type": "DT_FLOAT"}}}, {"name": "StatefulPartitionedCall/functional_9/concatenate_28/concat/axis", "op": "Const", "attr": {"value": {"tensor": {"dtype": "DT_INT32", "tensorShape": {}}}, "dtype": {"type": "DT_INT32"}}}, {"name": "unknown_71", "op": "Const", "attr": {"value": {"tensor": {"dtype": "DT_FLOAT", "tensorShape": {"dim": [{"size": "3"}]}}}, "dtype": {"type": "DT_FLOAT"}}}, {"name": "input_4", "op": "Placeholder", "attr": {"shape": {"shape": {"dim": [{"size": "-1"}, {"size": "256"}, {"size": "256"}, {"size": "3"}]}}, "dtype": {"type": "DT_FLOAT"}}}, {"name": "StatefulPartitionedCall/functional_9/sequential_55/conv2d_35/Conv2D_weights", "op": "Const", "attr": {"dtype": {"type": "DT_FLOAT"}, "value": {"tensor": {"dtype": "DT_FLOAT", "tensorShape": {"dim": [{"size": "4"}, {"size": "4"}, {"size": "64"}, {"size": "128"}]}}}}}, {"name": "StatefulPartitionedCall/functional_9/sequential_55/conv2d_35/Conv2D_bn_offset", "op": "Const", "attr": {"dtype": {"type": "DT_FLOAT"}, "value": {"tensor": {"dtype": "DT_FLOAT", "tensorShape": {"dim": [{"size": "128"}]}}}}}, {"name": "StatefulPartitionedCall/functional_9/sequential_56/conv2d_36/Conv2D_weights", "op": "Const", "attr": {"value": {"tensor": {"dtype": "DT_FLOAT", "tensorShape": {"dim": [{"size": "4"}, {"size": "4"}, {"size": "128"}, {"size": "256"}]}}}, "dtype": {"type": "DT_FLOAT"}}}, {"name": "StatefulPartitionedCall/functional_9/sequential_56/conv2d_36/Conv2D_bn_offset", "op": "Const", "attr": {"value": {"tensor": {"dtype": "DT_FLOAT", "tensorShape": {"dim": [{"size": "256"}]}}}, "dtype": {"type": "DT_FLOAT"}}}, {"name": "StatefulPartitionedCall/functional_9/sequential_57/conv2d_37/Conv2D_weights", "op": "Const", "attr": {"value": {"tensor": {"dtype": "DT_FLOAT", "tensorShape": {"dim": [{"size": "4"}, {"size": "4"}, {"size": "256"}, {"size": "512"}]}}}, "dtype": {"type": "DT_FLOAT"}}}, {"name": "StatefulPartitionedCall/functional_9/sequential_57/conv2d_37/Conv2D_bn_offset", "op": "Const", "attr": {"dtype": {"type": "DT_FLOAT"}, "value": {"tensor": {"dtype": "DT_FLOAT", "tensorShape": {"dim": [{"size": "512"}]}}}}}, {"name": "StatefulPartitionedCall/functional_9/sequential_58/conv2d_38/Conv2D_weights", "op": "Const", "attr": {"dtype": {"type": "DT_FLOAT"}, "value": {"tensor": {"dtype": "DT_FLOAT", "tensorShape": {"dim": [{"size": "4"}, {"size": "4"}, {"size": "512"}, {"size": "512"}]}}}}}, {"name": "StatefulPartitionedCall/functional_9/sequential_62/batch_normalization_58/FusedBatchNormV3/Scaled", "op": "Const", "attr": {"value": {"tensor": {"dtype": "DT_FLOAT", "tensorShape": {"dim": [{"size": "512"}]}}}, "dtype": {"type": "DT_FLOAT"}}}, {"name": "StatefulPartitionedCall/functional_9/sequential_58/conv2d_38/Conv2D_bn_offset", "op": "Const", "attr": {"value": {"tensor": {"dtype": "DT_FLOAT", "tensorShape": {"dim": [{"size": "512"}]}}}, "dtype": {"type": "DT_FLOAT"}}}, {"name": "StatefulPartitionedCall/functional_9/sequential_59/conv2d_39/Conv2D_weights", "op": "Const", "attr": {"value": {"tensor": {"dtype": "DT_FLOAT", "tensorShape": {"dim": [{"size": "4"}, {"size": "4"}, {"size": "512"}, {"size": "512"}]}}}, "dtype": {"type": "DT_FLOAT"}}}, {"name": "StatefulPartitionedCall/functional_9/sequential_59/conv2d_39/Conv2D_bn_offset", "op": "Const", "attr": {"value": {"tensor": {"dtype": "DT_FLOAT", "tensorShape": {"dim": [{"size": "512"}]}}}, "dtype": {"type": "DT_FLOAT"}}}, {"name": "StatefulPartitionedCall/functional_9/sequential_60/conv2d_40/Conv2D_weights", "op": "Const", "attr": {"dtype": {"type": "DT_FLOAT"}, "value": {"tensor": {"dtype": "DT_FLOAT", "tensorShape": {"dim": [{"size": "4"}, {"size": "4"}, {"size": "512"}, {"size": "512"}]}}}}}, {"name": "StatefulPartitionedCall/functional_9/sequential_60/conv2d_40/Conv2D_bn_offset", "op": "Const", "attr": {"value": {"tensor": {"dtype": "DT_FLOAT", "tensorShape": {"dim": [{"size": "512"}]}}}, "dtype": {"type": "DT_FLOAT"}}}, {"name": "StatefulPartitionedCall/functional_9/sequential_61/conv2d_41/Conv2D_weights", "op": "Const", "attr": {"value": {"tensor": {"dtype": "DT_FLOAT", "tensorShape": {"dim": [{"size": "4"}, {"size": "4"}, {"size": "512"}, {"size": "512"}]}}}, "dtype": {"type": "DT_FLOAT"}}}, {"name": "StatefulPartitionedCall/functional_9/sequential_62/batch_normalization_58/FusedBatchNormV3/Offset", "op": "Const", "attr": {"value": {"tensor": {"dtype": "DT_FLOAT", "tensorShape": {"dim": [{"size": "512"}]}}}, "dtype": {"type": "DT_FLOAT"}}}, {"name": "StatefulPartitionedCall/functional_9/sequential_61/conv2d_41/Conv2D_bn_offset", "op": "Const", "attr": {"value": {"tensor": {"dtype": "DT_FLOAT", "tensorShape": {"dim": [{"size": "512"}]}}}, "dtype": {"type": "DT_FLOAT"}}}, {"name": "StatefulPartitionedCall/functional_9/sequential_68/batch_normalization_64/FusedBatchNormV3/Scaled", "op": "Const", "attr": {"dtype": {"type": "DT_FLOAT"}, "value": {"tensor": {"dtype": "DT_FLOAT", "tensorShape": {"dim": [{"size": "64"}]}}}}}, {"name": "StatefulPartitionedCall/functional_9/sequential_68/batch_normalization_64/FusedBatchNormV3/Offset", "op": "Const", "attr": {"dtype": {"type": "DT_FLOAT"}, "value": {"tensor": {"dtype": "DT_FLOAT", "tensorShape": {"dim": [{"size": "64"}]}}}}}, {"name": "StatefulPartitionedCall/functional_9/sequential_67/batch_normalization_63/FusedBatchNormV3/Scaled", "op": "Const", "attr": {"value": {"tensor": {"dtype": "DT_FLOAT", "tensorShape": {"dim": [{"size": "128"}]}}}, "dtype": {"type": "DT_FLOAT"}}}, {"name": "StatefulPartitionedCall/functional_9/sequential_67/batch_normalization_63/FusedBatchNormV3/Offset", "op": "Const", "attr": {"value": {"tensor": {"dtype": "DT_FLOAT", "tensorShape": {"dim": [{"size": "128"}]}}}, "dtype": {"type": "DT_FLOAT"}}}, {"name": "StatefulPartitionedCall/functional_9/sequential_66/batch_normalization_62/FusedBatchNormV3/Scaled", "op": "Const", "attr": {"dtype": {"type": "DT_FLOAT"}, "value": {"tensor": {"dtype": "DT_FLOAT", "tensorShape": {"dim": [{"size": "256"}]}}}}}, {"name": "StatefulPartitionedCall/functional_9/sequential_66/batch_normalization_62/FusedBatchNormV3/Offset", "op": "Const", "attr": {"dtype": {"type": "DT_FLOAT"}, "value": {"tensor": {"dtype": "DT_FLOAT", "tensorShape": {"dim": [{"size": "256"}]}}}}}, {"name": "StatefulPartitionedCall/functional_9/sequential_65/batch_normalization_61/FusedBatchNormV3/Scaled", "op": "Const", "attr": {"value": {"tensor": {"dtype": "DT_FLOAT", "tensorShape": {"dim": [{"size": "512"}]}}}, "dtype": {"type": "DT_FLOAT"}}}, {"name": "StatefulPartitionedCall/functional_9/sequential_65/batch_normalization_61/FusedBatchNormV3/Offset", "op": "Const", "attr": {"value": {"tensor": {"dtype": "DT_FLOAT", "tensorShape": {"dim": [{"size": "512"}]}}}, "dtype": {"type": "DT_FLOAT"}}}, {"name": "StatefulPartitionedCall/functional_9/sequential_64/batch_normalization_60/FusedBatchNormV3/Scaled", "op": "Const", "attr": {"dtype": {"type": "DT_FLOAT"}, "value": {"tensor": {"dtype": "DT_FLOAT", "tensorShape": {"dim": [{"size": "512"}]}}}}}, {"name": "StatefulPartitionedCall/functional_9/sequential_64/batch_normalization_60/FusedBatchNormV3/Offset", "op": "Const", "attr": {"value": {"tensor": {"dtype": "DT_FLOAT", "tensorShape": {"dim": [{"size": "512"}]}}}, "dtype": {"type": "DT_FLOAT"}}}, {"name": "StatefulPartitionedCall/functional_9/sequential_63/batch_normalization_59/FusedBatchNormV3/Scaled", "op": "Const", "attr": {"dtype": {"type": "DT_FLOAT"}, "value": {"tensor": {"dtype": "DT_FLOAT", "tensorShape": {"dim": [{"size": "512"}]}}}}}, {"name": "StatefulPartitionedCall/functional_9/sequential_63/batch_normalization_59/FusedBatchNormV3/Offset", "op": "Const", "attr": {"value": {"tensor": {"dtype": "DT_FLOAT", "tensorShape": {"dim": [{"size": "512"}]}}}, "dtype": {"type": "DT_FLOAT"}}}, {"name": "StatefulPartitionedCall/functional_9/sequential_54/conv2d_34/Conv2D", "op": "Conv2D", "input": ["input_4", "unknown"], "device": "/device:CPU:0", "attr": {"T": {"type": "DT_FLOAT"}, "use_cudnn_on_gpu": {"b": true}, "padding": {"s": "U0FNRQ=="}, "explicit_paddings": {"list": {}}, "strides": {"list": {"i": ["1", "2", "2", "1"]}}, "dilations": {"list": {"i": ["1", "1", "1", "1"]}}, "data_format": {"s": "TkhXQw=="}}}, {"name": "StatefulPartitionedCall/functional_9/sequential_54/leaky_re_lu_33/LeakyRelu", "op": "LeakyRelu", "input": ["StatefulPartitionedCall/functional_9/sequential_54/conv2d_34/Conv2D"], "attr": {"alpha": {"f": 0.3}, "T": {"type": "DT_FLOAT"}}}, {"name": "StatefulPartitionedCall/functional_9/sequential_55/batch_normalization_51/FusedBatchNormV3", "op": "_FusedConv2D", "input": ["StatefulPartitionedCall/functional_9/sequential_54/leaky_re_lu_33/LeakyRelu", "StatefulPartitionedCall/functional_9/sequential_55/conv2d_35/Conv2D_weights", "StatefulPartitionedCall/functional_9/sequential_55/conv2d_35/Conv2D_bn_offset"], "device": "/device:CPU:0", "attr": {"num_args": {"i": "1"}, "data_format": {"s": "TkhXQw=="}, "fused_ops": {"list": {"s": ["Qmlhc0FkZA=="]}}, "strides": {"list": {"i": ["1", "2", "2", "1"]}}, "T": {"type": "DT_FLOAT"}, "dilations": {"list": {"i": ["1", "1", "1", "1"]}}, "explicit_paddings": {"list": {}}, "epsilon": {"f": 0.0}, "padding": {"s": "U0FNRQ=="}, "use_cudnn_on_gpu": {"b": true}}}, {"name": "StatefulPartitionedCall/functional_9/sequential_55/leaky_re_lu_34/LeakyRelu", "op": "LeakyRelu", "input": ["StatefulPartitionedCall/functional_9/sequential_55/batch_normalization_51/FusedBatchNormV3"], "attr": {"alpha": {"f": 0.3}, "T": {"type": "DT_FLOAT"}}}, {"name": "StatefulPartitionedCall/functional_9/sequential_56/batch_normalization_52/FusedBatchNormV3", "op": "_FusedConv2D", "input": ["StatefulPartitionedCall/functional_9/sequential_55/leaky_re_lu_34/LeakyRelu", "StatefulPartitionedCall/functional_9/sequential_56/conv2d_36/Conv2D_weights", "StatefulPartitionedCall/functional_9/sequential_56/conv2d_36/Conv2D_bn_offset"], "device": "/device:CPU:0", "attr": {"T": {"type": "DT_FLOAT"}, "data_format": {"s": "TkhXQw=="}, "num_args": {"i": "1"}, "padding": {"s": "U0FNRQ=="}, "use_cudnn_on_gpu": {"b": true}, "fused_ops": {"list": {"s": ["Qmlhc0FkZA=="]}}, "explicit_paddings": {"list": {}}, "dilations": {"list": {"i": ["1", "1", "1", "1"]}}, "strides": {"list": {"i": ["1", "2", "2", "1"]}}, "epsilon": {"f": 0.0}}}, {"name": "StatefulPartitionedCall/functional_9/sequential_56/leaky_re_lu_35/LeakyRelu", "op": "LeakyRelu", "input": ["StatefulPartitionedCall/functional_9/sequential_56/batch_normalization_52/FusedBatchNormV3"], "attr": {"T": {"type": "DT_FLOAT"}, "alpha": {"f": 0.3}}}, {"name": "StatefulPartitionedCall/functional_9/sequential_57/batch_normalization_53/FusedBatchNormV3", "op": "_FusedConv2D", "input": ["StatefulPartitionedCall/functional_9/sequential_56/leaky_re_lu_35/LeakyRelu", "StatefulPartitionedCall/functional_9/sequential_57/conv2d_37/Conv2D_weights", "StatefulPartitionedCall/functional_9/sequential_57/conv2d_37/Conv2D_bn_offset"], "device": "/device:CPU:0", "attr": {"dilations": {"list": {"i": ["1", "1", "1", "1"]}}, "data_format": {"s": "TkhXQw=="}, "explicit_paddings": {"list": {}}, "num_args": {"i": "1"}, "use_cudnn_on_gpu": {"b": true}, "T": {"type": "DT_FLOAT"}, "epsilon": {"f": 0.0}, "strides": {"list": {"i": ["1", "2", "2", "1"]}}, "fused_ops": {"list": {"s": ["Qmlhc0FkZA=="]}}, "padding": {"s": "U0FNRQ=="}}}, {"name": "StatefulPartitionedCall/functional_9/sequential_57/leaky_re_lu_36/LeakyRelu", "op": "LeakyRelu", "input": ["StatefulPartitionedCall/functional_9/sequential_57/batch_normalization_53/FusedBatchNormV3"], "attr": {"alpha": {"f": 0.3}, "T": {"type": "DT_FLOAT"}}}, {"name": "StatefulPartitionedCall/functional_9/sequential_58/batch_normalization_54/FusedBatchNormV3", "op": "_FusedConv2D", "input": ["StatefulPartitionedCall/functional_9/sequential_57/leaky_re_lu_36/LeakyRelu", "StatefulPartitionedCall/functional_9/sequential_58/conv2d_38/Conv2D_weights", "StatefulPartitionedCall/functional_9/sequential_58/conv2d_38/Conv2D_bn_offset"], "device": "/device:CPU:0", "attr": {"data_format": {"s": "TkhXQw=="}, "explicit_paddings": {"list": {}}, "epsilon": {"f": 0.0}, "strides": {"list": {"i": ["1", "2", "2", "1"]}}, "padding": {"s": "U0FNRQ=="}, "num_args": {"i": "1"}, "dilations": {"list": {"i": ["1", "1", "1", "1"]}}, "fused_ops": {"list": {"s": ["Qmlhc0FkZA=="]}}, "T": {"type": "DT_FLOAT"}, "use_cudnn_on_gpu": {"b": true}}}, {"name": "StatefulPartitionedCall/functional_9/sequential_58/leaky_re_lu_37/LeakyRelu", "op": "LeakyRelu", "input": ["StatefulPartitionedCall/functional_9/sequential_58/batch_normalization_54/FusedBatchNormV3"], "attr": {"alpha": {"f": 0.3}, "T": {"type": "DT_FLOAT"}}}, {"name": "StatefulPartitionedCall/functional_9/sequential_59/batch_normalization_55/FusedBatchNormV3", "op": "_FusedConv2D", "input": ["StatefulPartitionedCall/functional_9/sequential_58/leaky_re_lu_37/LeakyRelu", "StatefulPartitionedCall/functional_9/sequential_59/conv2d_39/Conv2D_weights", "StatefulPartitionedCall/functional_9/sequential_59/conv2d_39/Conv2D_bn_offset"], "device": "/device:CPU:0", "attr": {"strides": {"list": {"i": ["1", "2", "2", "1"]}}, "T": {"type": "DT_FLOAT"}, "fused_ops": {"list": {"s": ["Qmlhc0FkZA=="]}}, "explicit_paddings": {"list": {}}, "data_format": {"s": "TkhXQw=="}, "use_cudnn_on_gpu": {"b": true}, "padding": {"s": "U0FNRQ=="}, "epsilon": {"f": 0.0}, "dilations": {"list": {"i": ["1", "1", "1", "1"]}}, "num_args": {"i": "1"}}}, {"name": "StatefulPartitionedCall/functional_9/sequential_59/leaky_re_lu_38/LeakyRelu", "op": "LeakyRelu", "input": ["StatefulPartitionedCall/functional_9/sequential_59/batch_normalization_55/FusedBatchNormV3"], "attr": {"T": {"type": "DT_FLOAT"}, "alpha": {"f": 0.3}}}, {"name": "StatefulPartitionedCall/functional_9/sequential_60/batch_normalization_56/FusedBatchNormV3", "op": "_FusedConv2D", "input": ["StatefulPartitionedCall/functional_9/sequential_59/leaky_re_lu_38/LeakyRelu", "StatefulPartitionedCall/functional_9/sequential_60/conv2d_40/Conv2D_weights", "StatefulPartitionedCall/functional_9/sequential_60/conv2d_40/Conv2D_bn_offset"], "device": "/device:CPU:0", "attr": {"T": {"type": "DT_FLOAT"}, "explicit_paddings": {"list": {}}, "epsilon": {"f": 0.0}, "use_cudnn_on_gpu": {"b": true}, "dilations": {"list": {"i": ["1", "1", "1", "1"]}}, "data_format": {"s": "TkhXQw=="}, "fused_ops": {"list": {"s": ["Qmlhc0FkZA=="]}}, "padding": {"s": "U0FNRQ=="}, "num_args": {"i": "1"}, "strides": {"list": {"i": ["1", "2", "2", "1"]}}}}, {"name": "StatefulPartitionedCall/functional_9/sequential_60/leaky_re_lu_39/LeakyRelu", "op": "LeakyRelu", "input": ["StatefulPartitionedCall/functional_9/sequential_60/batch_normalization_56/FusedBatchNormV3"], "attr": {"T": {"type": "DT_FLOAT"}, "alpha": {"f": 0.3}}}, {"name": "StatefulPartitionedCall/functional_9/sequential_61/batch_normalization_57/FusedBatchNormV3", "op": "_FusedConv2D", "input": ["StatefulPartitionedCall/functional_9/sequential_60/leaky_re_lu_39/LeakyRelu", "StatefulPartitionedCall/functional_9/sequential_61/conv2d_41/Conv2D_weights", "StatefulPartitionedCall/functional_9/sequential_61/conv2d_41/Conv2D_bn_offset"], "device": "/device:CPU:0", "attr": {"dilations": {"list": {"i": ["1", "1", "1", "1"]}}, "epsilon": {"f": 0.0}, "data_format": {"s": "TkhXQw=="}, "strides": {"list": {"i": ["1", "2", "2", "1"]}}, "use_cudnn_on_gpu": {"b": true}, "T": {"type": "DT_FLOAT"}, "fused_ops": {"list": {"s": ["Qmlhc0FkZA=="]}}, "explicit_paddings": {"list": {}}, "padding": {"s": "U0FNRQ=="}, "num_args": {"i": "1"}}}, {"name": "StatefulPartitionedCall/functional_9/sequential_61/leaky_re_lu_40/LeakyRelu", "op": "LeakyRelu", "input": ["StatefulPartitionedCall/functional_9/sequential_61/batch_normalization_57/FusedBatchNormV3"], "attr": {"alpha": {"f": 0.3}, "T": {"type": "DT_FLOAT"}}}, {"name": "StatefulPartitionedCall/functional_9/sequential_62/conv2d_transpose_25/Shape", "op": "Shape", "input": ["StatefulPartitionedCall/functional_9/sequential_61/leaky_re_lu_40/LeakyRelu"], "attr": {"T": {"type": "DT_FLOAT"}, "out_type": {"type": "DT_INT32"}}}, {"name": "StatefulPartitionedCall/functional_9/sequential_62/conv2d_transpose_25/strided_slice", "op": "StridedSlice", "input": ["StatefulPartitionedCall/functional_9/sequential_62/conv2d_transpose_25/Shape", "StatefulPartitionedCall/functional_9/sequential_62/conv2d_transpose_25/strided_slice/stack", "StatefulPartitionedCall/functional_9/sequential_62/conv2d_transpose_25/strided_slice/stack_1", "StatefulPartitionedCall/functional_9/sequential_62/conv2d_transpose_25/strided_slice/stack_2"], "attr": {"Index": {"type": "DT_INT32"}, "new_axis_mask": {"i": "0"}, "end_mask": {"i": "0"}, "shrink_axis_mask": {"i": "1"}, "T": {"type": "DT_INT32"}, "begin_mask": {"i": "0"}, "ellipsis_mask": {"i": "0"}}}, {"name": "StatefulPartitionedCall/functional_9/sequential_62/conv2d_transpose_25/stack", "op": "Pack", "input": ["StatefulPartitionedCall/functional_9/sequential_62/conv2d_transpose_25/strided_slice", "StatefulPartitionedCall/functional_9/sequential_62/conv2d_transpose_25/stack/1", "StatefulPartitionedCall/functional_9/sequential_62/conv2d_transpose_25/stack/2", "StatefulPartitionedCall/functional_9/sequential_62/conv2d_transpose_25/stack/3"], "attr": {"N": {"i": "4"}, "axis": {"i": "0"}, "T": {"type": "DT_INT32"}}}, {"name": "StatefulPartitionedCall/functional_9/sequential_62/conv2d_transpose_25/conv2d_transpose", "op": "Conv2DBackpropInput", "input": ["StatefulPartitionedCall/functional_9/sequential_62/conv2d_transpose_25/stack", "unknown_35", "StatefulPartitionedCall/functional_9/sequential_61/leaky_re_lu_40/LeakyRelu"], "attr": {"dilations": {"list": {"i": ["1", "1", "1", "1"]}}, "strides": {"list": {"i": ["1", "2", "2", "1"]}}, "T": {"type": "DT_FLOAT"}, "explicit_paddings": {"list": {}}, "data_format": {"s": "TkhXQw=="}, "use_cudnn_on_gpu": {"b": true}, "padding": {"s": "U0FNRQ=="}}}, {"name": "StatefulPartitionedCall/functional_9/sequential_62/batch_normalization_58/FusedBatchNormV3/Mul", "op": "Mul", "input": ["StatefulPartitionedCall/functional_9/sequential_62/conv2d_transpose_25/conv2d_transpose", "StatefulPartitionedCall/functional_9/sequential_62/batch_normalization_58/FusedBatchNormV3/Scaled"], "attr": {"T": {"type": "DT_FLOAT"}}}, {"name": "StatefulPartitionedCall/functional_9/sequential_62/batch_normalization_58/FusedBatchNormV3", "op": "Add", "input": ["StatefulPartitionedCall/functional_9/sequential_62/batch_normalization_58/FusedBatchNormV3/Mul", "StatefulPartitionedCall/functional_9/sequential_62/batch_normalization_58/FusedBatchNormV3/Offset"], "attr": {"T": {"type": "DT_FLOAT"}}}, {"name": "StatefulPartitionedCall/functional_9/sequential_62/re_lu_22/Relu", "op": "Relu", "input": ["StatefulPartitionedCall/functional_9/sequential_62/batch_normalization_58/FusedBatchNormV3"], "attr": {"T": {"type": "DT_FLOAT"}}}, {"name": "StatefulPartitionedCall/functional_9/concatenate_22/concat", "op": "ConcatV2", "input": ["StatefulPartitionedCall/functional_9/sequential_62/re_lu_22/Relu", "StatefulPartitionedCall/functional_9/sequential_60/leaky_re_lu_39/LeakyRelu", "StatefulPartitionedCall/functional_9/concatenate_22/concat/axis"], "attr": {"N": {"i": "2"}, "T": {"type": "DT_FLOAT"}, "Tidx": {"type": "DT_INT32"}}}, {"name": "StatefulPartitionedCall/functional_9/sequential_63/conv2d_transpose_26/Shape", "op": "Shape", "input": ["StatefulPartitionedCall/functional_9/concatenate_22/concat"], "attr": {"out_type": {"type": "DT_INT32"}, "T": {"type": "DT_FLOAT"}}}, {"name": "StatefulPartitionedCall/functional_9/sequential_63/conv2d_transpose_26/strided_slice", "op": "StridedSlice", "input": ["StatefulPartitionedCall/functional_9/sequential_63/conv2d_transpose_26/Shape", "StatefulPartitionedCall/functional_9/sequential_63/conv2d_transpose_26/strided_slice/stack", "StatefulPartitionedCall/functional_9/sequential_63/conv2d_transpose_26/strided_slice/stack_1", "StatefulPartitionedCall/functional_9/sequential_63/conv2d_transpose_26/strided_slice/stack_2"], "attr": {"shrink_axis_mask": {"i": "1"}, "end_mask": {"i": "0"}, "T": {"type": "DT_INT32"}, "Index": {"type": "DT_INT32"}, "new_axis_mask": {"i": "0"}, "ellipsis_mask": {"i": "0"}, "begin_mask": {"i": "0"}}}, {"name": "StatefulPartitionedCall/functional_9/sequential_63/conv2d_transpose_26/stack", "op": "Pack", "input": ["StatefulPartitionedCall/functional_9/sequential_63/conv2d_transpose_26/strided_slice", "StatefulPartitionedCall/functional_9/sequential_63/conv2d_transpose_26/stack/1", "StatefulPartitionedCall/functional_9/sequential_63/conv2d_transpose_26/stack/2", "StatefulPartitionedCall/functional_9/sequential_63/conv2d_transpose_26/stack/3"], "attr": {"T": {"type": "DT_INT32"}, "axis": {"i": "0"}, "N": {"i": "4"}}}, {"name": "StatefulPartitionedCall/functional_9/sequential_63/conv2d_transpose_26/conv2d_transpose", "op": "Conv2DBackpropInput", "input": ["StatefulPartitionedCall/functional_9/sequential_63/conv2d_transpose_26/stack", "unknown_40", "StatefulPartitionedCall/functional_9/concatenate_22/concat"], "attr": {"use_cudnn_on_gpu": {"b": true}, "padding": {"s": "U0FNRQ=="}, "T": {"type": "DT_FLOAT"}, "data_format": {"s": "TkhXQw=="}, "dilations": {"list": {"i": ["1", "1", "1", "1"]}}, "strides": {"list": {"i": ["1", "2", "2", "1"]}}, "explicit_paddings": {"list": {}}}}, {"name": "StatefulPartitionedCall/functional_9/sequential_63/batch_normalization_59/FusedBatchNormV3/Mul", "op": "Mul", "input": ["StatefulPartitionedCall/functional_9/sequential_63/conv2d_transpose_26/conv2d_transpose", "StatefulPartitionedCall/functional_9/sequential_63/batch_normalization_59/FusedBatchNormV3/Scaled"], "attr": {"T": {"type": "DT_FLOAT"}}}, {"name": "StatefulPartitionedCall/functional_9/sequential_63/batch_normalization_59/FusedBatchNormV3", "op": "Add", "input": ["StatefulPartitionedCall/functional_9/sequential_63/batch_normalization_59/FusedBatchNormV3/Mul", "StatefulPartitionedCall/functional_9/sequential_63/batch_normalization_59/FusedBatchNormV3/Offset"], "attr": {"T": {"type": "DT_FLOAT"}}}, {"name": "StatefulPartitionedCall/functional_9/sequential_63/re_lu_23/Relu", "op": "Relu", "input": ["StatefulPartitionedCall/functional_9/sequential_63/batch_normalization_59/FusedBatchNormV3"], "attr": {"T": {"type": "DT_FLOAT"}}}, {"name": "StatefulPartitionedCall/functional_9/concatenate_23/concat", "op": "ConcatV2", "input": ["StatefulPartitionedCall/functional_9/sequential_63/re_lu_23/Relu", "StatefulPartitionedCall/functional_9/sequential_59/leaky_re_lu_38/LeakyRelu", "StatefulPartitionedCall/functional_9/concatenate_23/concat/axis"], "attr": {"Tidx": {"type": "DT_INT32"}, "N": {"i": "2"}, "T": {"type": "DT_FLOAT"}}}, {"name": "StatefulPartitionedCall/functional_9/sequential_64/conv2d_transpose_27/Shape", "op": "Shape", "input": ["StatefulPartitionedCall/functional_9/concatenate_23/concat"], "attr": {"T": {"type": "DT_FLOAT"}, "out_type": {"type": "DT_INT32"}}}, {"name": "StatefulPartitionedCall/functional_9/sequential_64/conv2d_transpose_27/strided_slice", "op": "StridedSlice", "input": ["StatefulPartitionedCall/functional_9/sequential_64/conv2d_transpose_27/Shape", "StatefulPartitionedCall/functional_9/sequential_64/conv2d_transpose_27/strided_slice/stack", "StatefulPartitionedCall/functional_9/sequential_64/conv2d_transpose_27/strided_slice/stack_1", "StatefulPartitionedCall/functional_9/sequential_64/conv2d_transpose_27/strided_slice/stack_2"], "attr": {"begin_mask": {"i": "0"}, "T": {"type": "DT_INT32"}, "ellipsis_mask": {"i": "0"}, "Index": {"type": "DT_INT32"}, "shrink_axis_mask": {"i": "1"}, "new_axis_mask": {"i": "0"}, "end_mask": {"i": "0"}}}, {"name": "StatefulPartitionedCall/functional_9/sequential_64/conv2d_transpose_27/stack", "op": "Pack", "input": ["StatefulPartitionedCall/functional_9/sequential_64/conv2d_transpose_27/strided_slice", "StatefulPartitionedCall/functional_9/sequential_64/conv2d_transpose_27/stack/1", "StatefulPartitionedCall/functional_9/sequential_64/conv2d_transpose_27/stack/2", "StatefulPartitionedCall/functional_9/sequential_64/conv2d_transpose_27/stack/3"], "attr": {"N": {"i": "4"}, "T": {"type": "DT_INT32"}, "axis": {"i": "0"}}}, {"name": "StatefulPartitionedCall/functional_9/sequential_64/conv2d_transpose_27/conv2d_transpose", "op": "Conv2DBackpropInput", "input": ["StatefulPartitionedCall/functional_9/sequential_64/conv2d_transpose_27/stack", "unknown_45", "StatefulPartitionedCall/functional_9/concatenate_23/concat"], "attr": {"use_cudnn_on_gpu": {"b": true}, "padding": {"s": "U0FNRQ=="}, "explicit_paddings": {"list": {}}, "dilations": {"list": {"i": ["1", "1", "1", "1"]}}, "T": {"type": "DT_FLOAT"}, "strides": {"list": {"i": ["1", "2", "2", "1"]}}, "data_format": {"s": "TkhXQw=="}}}, {"name": "StatefulPartitionedCall/functional_9/sequential_64/batch_normalization_60/FusedBatchNormV3/Mul", "op": "Mul", "input": ["StatefulPartitionedCall/functional_9/sequential_64/conv2d_transpose_27/conv2d_transpose", "StatefulPartitionedCall/functional_9/sequential_64/batch_normalization_60/FusedBatchNormV3/Scaled"], "attr": {"T": {"type": "DT_FLOAT"}}}, {"name": "StatefulPartitionedCall/functional_9/sequential_64/batch_normalization_60/FusedBatchNormV3", "op": "Add", "input": ["StatefulPartitionedCall/functional_9/sequential_64/batch_normalization_60/FusedBatchNormV3/Mul", "StatefulPartitionedCall/functional_9/sequential_64/batch_normalization_60/FusedBatchNormV3/Offset"], "attr": {"T": {"type": "DT_FLOAT"}}}, {"name": "StatefulPartitionedCall/functional_9/sequential_64/re_lu_24/Relu", "op": "Relu", "input": ["StatefulPartitionedCall/functional_9/sequential_64/batch_normalization_60/FusedBatchNormV3"], "attr": {"T": {"type": "DT_FLOAT"}}}, {"name": "StatefulPartitionedCall/functional_9/concatenate_24/concat", "op": "ConcatV2", "input": ["StatefulPartitionedCall/functional_9/sequential_64/re_lu_24/Relu", "StatefulPartitionedCall/functional_9/sequential_58/leaky_re_lu_37/LeakyRelu", "StatefulPartitionedCall/functional_9/concatenate_24/concat/axis"], "attr": {"N": {"i": "2"}, "Tidx": {"type": "DT_INT32"}, "T": {"type": "DT_FLOAT"}}}, {"name": "StatefulPartitionedCall/functional_9/sequential_65/conv2d_transpose_28/Shape", "op": "Shape", "input": ["StatefulPartitionedCall/functional_9/concatenate_24/concat"], "attr": {"out_type": {"type": "DT_INT32"}, "T": {"type": "DT_FLOAT"}}}, {"name": "StatefulPartitionedCall/functional_9/sequential_65/conv2d_transpose_28/strided_slice", "op": "StridedSlice", "input": ["StatefulPartitionedCall/functional_9/sequential_65/conv2d_transpose_28/Shape", "StatefulPartitionedCall/functional_9/sequential_65/conv2d_transpose_28/strided_slice/stack", "StatefulPartitionedCall/functional_9/sequential_65/conv2d_transpose_28/strided_slice/stack_1", "StatefulPartitionedCall/functional_9/sequential_65/conv2d_transpose_28/strided_slice/stack_2"], "attr": {"begin_mask": {"i": "0"}, "end_mask": {"i": "0"}, "Index": {"type": "DT_INT32"}, "ellipsis_mask": {"i": "0"}, "new_axis_mask": {"i": "0"}, "T": {"type": "DT_INT32"}, "shrink_axis_mask": {"i": "1"}}}, {"name": "StatefulPartitionedCall/functional_9/sequential_65/conv2d_transpose_28/stack", "op": "Pack", "input": ["StatefulPartitionedCall/functional_9/sequential_65/conv2d_transpose_28/strided_slice", "StatefulPartitionedCall/functional_9/sequential_65/conv2d_transpose_28/stack/1", "StatefulPartitionedCall/functional_9/sequential_65/conv2d_transpose_28/stack/2", "StatefulPartitionedCall/functional_9/sequential_65/conv2d_transpose_28/stack/3"], "attr": {"T": {"type": "DT_INT32"}, "N": {"i": "4"}, "axis": {"i": "0"}}}, {"name": "StatefulPartitionedCall/functional_9/sequential_65/conv2d_transpose_28/conv2d_transpose", "op": "Conv2DBackpropInput", "input": ["StatefulPartitionedCall/functional_9/sequential_65/conv2d_transpose_28/stack", "unknown_50", "StatefulPartitionedCall/functional_9/concatenate_24/concat"], "attr": {"use_cudnn_on_gpu": {"b": true}, "strides": {"list": {"i": ["1", "2", "2", "1"]}}, "explicit_paddings": {"list": {}}, "data_format": {"s": "TkhXQw=="}, "padding": {"s": "U0FNRQ=="}, "T": {"type": "DT_FLOAT"}, "dilations": {"list": {"i": ["1", "1", "1", "1"]}}}}, {"name": "StatefulPartitionedCall/functional_9/sequential_65/batch_normalization_61/FusedBatchNormV3/Mul", "op": "Mul", "input": ["StatefulPartitionedCall/functional_9/sequential_65/conv2d_transpose_28/conv2d_transpose", "StatefulPartitionedCall/functional_9/sequential_65/batch_normalization_61/FusedBatchNormV3/Scaled"], "attr": {"T": {"type": "DT_FLOAT"}}}, {"name": "StatefulPartitionedCall/functional_9/sequential_65/batch_normalization_61/FusedBatchNormV3", "op": "Add", "input": ["StatefulPartitionedCall/functional_9/sequential_65/batch_normalization_61/FusedBatchNormV3/Mul", "StatefulPartitionedCall/functional_9/sequential_65/batch_normalization_61/FusedBatchNormV3/Offset"], "attr": {"T": {"type": "DT_FLOAT"}}}, {"name": "StatefulPartitionedCall/functional_9/sequential_65/re_lu_25/Relu", "op": "Relu", "input": ["StatefulPartitionedCall/functional_9/sequential_65/batch_normalization_61/FusedBatchNormV3"], "attr": {"T": {"type": "DT_FLOAT"}}}, {"name": "StatefulPartitionedCall/functional_9/concatenate_25/concat", "op": "ConcatV2", "input": ["StatefulPartitionedCall/functional_9/sequential_65/re_lu_25/Relu", "StatefulPartitionedCall/functional_9/sequential_57/leaky_re_lu_36/LeakyRelu", "StatefulPartitionedCall/functional_9/concatenate_25/concat/axis"], "attr": {"T": {"type": "DT_FLOAT"}, "N": {"i": "2"}, "Tidx": {"type": "DT_INT32"}}}, {"name": "StatefulPartitionedCall/functional_9/sequential_66/conv2d_transpose_29/Shape", "op": "Shape", "input": ["StatefulPartitionedCall/functional_9/concatenate_25/concat"], "attr": {"out_type": {"type": "DT_INT32"}, "T": {"type": "DT_FLOAT"}}}, {"name": "StatefulPartitionedCall/functional_9/sequential_66/conv2d_transpose_29/strided_slice", "op": "StridedSlice", "input": ["StatefulPartitionedCall/functional_9/sequential_66/conv2d_transpose_29/Shape", "StatefulPartitionedCall/functional_9/sequential_66/conv2d_transpose_29/strided_slice/stack", "StatefulPartitionedCall/functional_9/sequential_66/conv2d_transpose_29/strided_slice/stack_1", "StatefulPartitionedCall/functional_9/sequential_66/conv2d_transpose_29/strided_slice/stack_2"], "attr": {"end_mask": {"i": "0"}, "Index": {"type": "DT_INT32"}, "shrink_axis_mask": {"i": "1"}, "new_axis_mask": {"i": "0"}, "begin_mask": {"i": "0"}, "ellipsis_mask": {"i": "0"}, "T": {"type": "DT_INT32"}}}, {"name": "StatefulPartitionedCall/functional_9/sequential_66/conv2d_transpose_29/stack", "op": "Pack", "input": ["StatefulPartitionedCall/functional_9/sequential_66/conv2d_transpose_29/strided_slice", "StatefulPartitionedCall/functional_9/sequential_66/conv2d_transpose_29/stack/1", "StatefulPartitionedCall/functional_9/sequential_66/conv2d_transpose_29/stack/2", "StatefulPartitionedCall/functional_9/sequential_66/conv2d_transpose_29/stack/3"], "attr": {"axis": {"i": "0"}, "N": {"i": "4"}, "T": {"type": "DT_INT32"}}}, {"name": "StatefulPartitionedCall/functional_9/sequential_66/conv2d_transpose_29/conv2d_transpose", "op": "Conv2DBackpropInput", "input": ["StatefulPartitionedCall/functional_9/sequential_66/conv2d_transpose_29/stack", "unknown_55", "StatefulPartitionedCall/functional_9/concatenate_25/concat"], "attr": {"padding": {"s": "U0FNRQ=="}, "dilations": {"list": {"i": ["1", "1", "1", "1"]}}, "use_cudnn_on_gpu": {"b": true}, "explicit_paddings": {"list": {}}, "T": {"type": "DT_FLOAT"}, "strides": {"list": {"i": ["1", "2", "2", "1"]}}, "data_format": {"s": "TkhXQw=="}}}, {"name": "StatefulPartitionedCall/functional_9/sequential_66/batch_normalization_62/FusedBatchNormV3/Mul", "op": "Mul", "input": ["StatefulPartitionedCall/functional_9/sequential_66/conv2d_transpose_29/conv2d_transpose", "StatefulPartitionedCall/functional_9/sequential_66/batch_normalization_62/FusedBatchNormV3/Scaled"], "attr": {"T": {"type": "DT_FLOAT"}}}, {"name": "StatefulPartitionedCall/functional_9/sequential_66/batch_normalization_62/FusedBatchNormV3", "op": "Add", "input": ["StatefulPartitionedCall/functional_9/sequential_66/batch_normalization_62/FusedBatchNormV3/Mul", "StatefulPartitionedCall/functional_9/sequential_66/batch_normalization_62/FusedBatchNormV3/Offset"], "attr": {"T": {"type": "DT_FLOAT"}}}, {"name": "StatefulPartitionedCall/functional_9/sequential_66/re_lu_26/Relu", "op": "Relu", "input": ["StatefulPartitionedCall/functional_9/sequential_66/batch_normalization_62/FusedBatchNormV3"], "attr": {"T": {"type": "DT_FLOAT"}}}, {"name": "StatefulPartitionedCall/functional_9/concatenate_26/concat", "op": "ConcatV2", "input": ["StatefulPartitionedCall/functional_9/sequential_66/re_lu_26/Relu", "StatefulPartitionedCall/functional_9/sequential_56/leaky_re_lu_35/LeakyRelu", "StatefulPartitionedCall/functional_9/concatenate_26/concat/axis"], "attr": {"T": {"type": "DT_FLOAT"}, "N": {"i": "2"}, "Tidx": {"type": "DT_INT32"}}}, {"name": "StatefulPartitionedCall/functional_9/sequential_67/conv2d_transpose_30/Shape", "op": "Shape", "input": ["StatefulPartitionedCall/functional_9/concatenate_26/concat"], "attr": {"out_type": {"type": "DT_INT32"}, "T": {"type": "DT_FLOAT"}}}, {"name": "StatefulPartitionedCall/functional_9/sequential_67/conv2d_transpose_30/strided_slice", "op": "StridedSlice", "input": ["StatefulPartitionedCall/functional_9/sequential_67/conv2d_transpose_30/Shape", "StatefulPartitionedCall/functional_9/sequential_67/conv2d_transpose_30/strided_slice/stack", "StatefulPartitionedCall/functional_9/sequential_67/conv2d_transpose_30/strided_slice/stack_1", "StatefulPartitionedCall/functional_9/sequential_67/conv2d_transpose_30/strided_slice/stack_2"], "attr": {"shrink_axis_mask": {"i": "1"}, "ellipsis_mask": {"i": "0"}, "T": {"type": "DT_INT32"}, "new_axis_mask": {"i": "0"}, "Index": {"type": "DT_INT32"}, "begin_mask": {"i": "0"}, "end_mask": {"i": "0"}}}, {"name": "StatefulPartitionedCall/functional_9/sequential_67/conv2d_transpose_30/stack", "op": "Pack", "input": ["StatefulPartitionedCall/functional_9/sequential_67/conv2d_transpose_30/strided_slice", "StatefulPartitionedCall/functional_9/sequential_67/conv2d_transpose_30/stack/1", "StatefulPartitionedCall/functional_9/sequential_67/conv2d_transpose_30/stack/2", "StatefulPartitionedCall/functional_9/sequential_67/conv2d_transpose_30/stack/3"], "attr": {"N": {"i": "4"}, "axis": {"i": "0"}, "T": {"type": "DT_INT32"}}}, {"name": "StatefulPartitionedCall/functional_9/sequential_67/conv2d_transpose_30/conv2d_transpose", "op": "Conv2DBackpropInput", "input": ["StatefulPartitionedCall/functional_9/sequential_67/conv2d_transpose_30/stack", "unknown_60", "StatefulPartitionedCall/functional_9/concatenate_26/concat"], "attr": {"padding": {"s": "U0FNRQ=="}, "use_cudnn_on_gpu": {"b": true}, "explicit_paddings": {"list": {}}, "dilations": {"list": {"i": ["1", "1", "1", "1"]}}, "data_format": {"s": "TkhXQw=="}, "strides": {"list": {"i": ["1", "2", "2", "1"]}}, "T": {"type": "DT_FLOAT"}}}, {"name": "StatefulPartitionedCall/functional_9/sequential_67/batch_normalization_63/FusedBatchNormV3/Mul", "op": "Mul", "input": ["StatefulPartitionedCall/functional_9/sequential_67/conv2d_transpose_30/conv2d_transpose", "StatefulPartitionedCall/functional_9/sequential_67/batch_normalization_63/FusedBatchNormV3/Scaled"], "attr": {"T": {"type": "DT_FLOAT"}}}, {"name": "StatefulPartitionedCall/functional_9/sequential_67/batch_normalization_63/FusedBatchNormV3", "op": "Add", "input": ["StatefulPartitionedCall/functional_9/sequential_67/batch_normalization_63/FusedBatchNormV3/Mul", "StatefulPartitionedCall/functional_9/sequential_67/batch_normalization_63/FusedBatchNormV3/Offset"], "attr": {"T": {"type": "DT_FLOAT"}}}, {"name": "StatefulPartitionedCall/functional_9/sequential_67/re_lu_27/Relu", "op": "Relu", "input": ["StatefulPartitionedCall/functional_9/sequential_67/batch_normalization_63/FusedBatchNormV3"], "attr": {"T": {"type": "DT_FLOAT"}}}, {"name": "StatefulPartitionedCall/functional_9/concatenate_27/concat", "op": "ConcatV2", "input": ["StatefulPartitionedCall/functional_9/sequential_67/re_lu_27/Relu", "StatefulPartitionedCall/functional_9/sequential_55/leaky_re_lu_34/LeakyRelu", "StatefulPartitionedCall/functional_9/concatenate_27/concat/axis"], "attr": {"Tidx": {"type": "DT_INT32"}, "N": {"i": "2"}, "T": {"type": "DT_FLOAT"}}}, {"name": "StatefulPartitionedCall/functional_9/sequential_68/conv2d_transpose_31/Shape", "op": "Shape", "input": ["StatefulPartitionedCall/functional_9/concatenate_27/concat"], "attr": {"T": {"type": "DT_FLOAT"}, "out_type": {"type": "DT_INT32"}}}, {"name": "StatefulPartitionedCall/functional_9/sequential_68/conv2d_transpose_31/strided_slice", "op": "StridedSlice", "input": ["StatefulPartitionedCall/functional_9/sequential_68/conv2d_transpose_31/Shape", "StatefulPartitionedCall/functional_9/sequential_68/conv2d_transpose_31/strided_slice/stack", "StatefulPartitionedCall/functional_9/sequential_68/conv2d_transpose_31/strided_slice/stack_1", "StatefulPartitionedCall/functional_9/sequential_68/conv2d_transpose_31/strided_slice/stack_2"], "attr": {"begin_mask": {"i": "0"}, "Index": {"type": "DT_INT32"}, "new_axis_mask": {"i": "0"}, "ellipsis_mask": {"i": "0"}, "T": {"type": "DT_INT32"}, "end_mask": {"i": "0"}, "shrink_axis_mask": {"i": "1"}}}, {"name": "StatefulPartitionedCall/functional_9/sequential_68/conv2d_transpose_31/stack", "op": "Pack", "input": ["StatefulPartitionedCall/functional_9/sequential_68/conv2d_transpose_31/strided_slice", "StatefulPartitionedCall/functional_9/sequential_68/conv2d_transpose_31/stack/1", "StatefulPartitionedCall/functional_9/sequential_68/conv2d_transpose_31/stack/2", "StatefulPartitionedCall/functional_9/sequential_68/conv2d_transpose_31/stack/3"], "attr": {"axis": {"i": "0"}, "T": {"type": "DT_INT32"}, "N": {"i": "4"}}}, {"name": "StatefulPartitionedCall/functional_9/sequential_68/conv2d_transpose_31/conv2d_transpose", "op": "Conv2DBackpropInput", "input": ["StatefulPartitionedCall/functional_9/sequential_68/conv2d_transpose_31/stack", "unknown_65", "StatefulPartitionedCall/functional_9/concatenate_27/concat"], "attr": {"use_cudnn_on_gpu": {"b": true}, "T": {"type": "DT_FLOAT"}, "strides": {"list": {"i": ["1", "2", "2", "1"]}}, "explicit_paddings": {"list": {}}, "data_format": {"s": "TkhXQw=="}, "dilations": {"list": {"i": ["1", "1", "1", "1"]}}, "padding": {"s": "U0FNRQ=="}}}, {"name": "StatefulPartitionedCall/functional_9/sequential_68/batch_normalization_64/FusedBatchNormV3/Mul", "op": "Mul", "input": ["StatefulPartitionedCall/functional_9/sequential_68/conv2d_transpose_31/conv2d_transpose", "StatefulPartitionedCall/functional_9/sequential_68/batch_normalization_64/FusedBatchNormV3/Scaled"], "attr": {"T": {"type": "DT_FLOAT"}}}, {"name": "StatefulPartitionedCall/functional_9/sequential_68/batch_normalization_64/FusedBatchNormV3", "op": "Add", "input": ["StatefulPartitionedCall/functional_9/sequential_68/batch_normalization_64/FusedBatchNormV3/Mul", "StatefulPartitionedCall/functional_9/sequential_68/batch_normalization_64/FusedBatchNormV3/Offset"], "attr": {"T": {"type": "DT_FLOAT"}}}, {"name": "StatefulPartitionedCall/functional_9/sequential_68/re_lu_28/Relu", "op": "Relu", "input": ["StatefulPartitionedCall/functional_9/sequential_68/batch_normalization_64/FusedBatchNormV3"], "attr": {"T": {"type": "DT_FLOAT"}}}, {"name": "StatefulPartitionedCall/functional_9/concatenate_28/concat", "op": "ConcatV2", "input": ["StatefulPartitionedCall/functional_9/sequential_68/re_lu_28/Relu", "StatefulPartitionedCall/functional_9/sequential_54/leaky_re_lu_33/LeakyRelu", "StatefulPartitionedCall/functional_9/concatenate_28/concat/axis"], "attr": {"T": {"type": "DT_FLOAT"}, "Tidx": {"type": "DT_INT32"}, "N": {"i": "2"}}}, {"name": "StatefulPartitionedCall/functional_9/conv2d_transpose_32/Shape", "op": "Shape", "input": ["StatefulPartitionedCall/functional_9/concatenate_28/concat"], "attr": {"out_type": {"type": "DT_INT32"}, "T": {"type": "DT_FLOAT"}}}, {"name": "StatefulPartitionedCall/functional_9/conv2d_transpose_32/strided_slice", "op": "StridedSlice", "input": ["StatefulPartitionedCall/functional_9/conv2d_transpose_32/Shape", "StatefulPartitionedCall/functional_9/conv2d_transpose_32/strided_slice/stack", "StatefulPartitionedCall/functional_9/conv2d_transpose_32/strided_slice/stack_1", "StatefulPartitionedCall/functional_9/conv2d_transpose_32/strided_slice/stack_2"], "attr": {"end_mask": {"i": "0"}, "shrink_axis_mask": {"i": "1"}, "new_axis_mask": {"i": "0"}, "begin_mask": {"i": "0"}, "Index": {"type": "DT_INT32"}, "ellipsis_mask": {"i": "0"}, "T": {"type": "DT_INT32"}}}, {"name": "StatefulPartitionedCall/functional_9/conv2d_transpose_32/stack", "op": "Pack", "input": ["StatefulPartitionedCall/functional_9/conv2d_transpose_32/strided_slice", "StatefulPartitionedCall/functional_9/conv2d_transpose_32/stack/1", "StatefulPartitionedCall/functional_9/conv2d_transpose_32/stack/2", "StatefulPartitionedCall/functional_9/conv2d_transpose_32/stack/3"], "attr": {"axis": {"i": "0"}, "T": {"type": "DT_INT32"}, "N": {"i": "4"}}}, {"name": "StatefulPartitionedCall/functional_9/conv2d_transpose_32/conv2d_transpose", "op": "Conv2DBackpropInput", "input": ["StatefulPartitionedCall/functional_9/conv2d_transpose_32/stack", "unknown_70", "StatefulPartitionedCall/functional_9/concatenate_28/concat"], "attr": {"dilations": {"list": {"i": ["1", "1", "1", "1"]}}, "data_format": {"s": "TkhXQw=="}, "padding": {"s": "U0FNRQ=="}, "T": {"type": "DT_FLOAT"}, "strides": {"list": {"i": ["1", "2", "2", "1"]}}, "use_cudnn_on_gpu": {"b": true}, "explicit_paddings": {"list": {}}}}, {"name": "StatefulPartitionedCall/functional_9/conv2d_transpose_32/BiasAdd", "op": "BiasAdd", "input": ["StatefulPartitionedCall/functional_9/conv2d_transpose_32/conv2d_transpose", "unknown_71"], "attr": {"data_format": {"s": "TkhXQw=="}, "T": {"type": "DT_FLOAT"}}}, {"name": "StatefulPartitionedCall/functional_9/conv2d_transpose_32/Tanh", "op": "Tanh", "input": ["StatefulPartitionedCall/functional_9/conv2d_transpose_32/BiasAdd"], "attr": {"T": {"type": "DT_FLOAT"}}}, {"name": "Identity", "op": "Identity", "input": ["StatefulPartitionedCall/functional_9/conv2d_transpose_32/Tanh"], "attr": {"T": {"type": "DT_FLOAT"}}}], "library": {}, "versions": {"producer": 440}}, "weightsManifest": [{"paths": ["group1-shard1of52.bin", "group1-shard2of52.bin", "group1-shard3of52.bin", "group1-shard4of52.bin", "group1-shard5of52.bin", "group1-shard6of52.bin", "group1-shard7of52.bin", "group1-shard8of52.bin", "group1-shard9of52.bin", "group1-shard10of52.bin", "group1-shard11of52.bin", "group1-shard12of52.bin", "group1-shard13of52.bin", "group1-shard14of52.bin", "group1-shard15of52.bin", "group1-shard16of52.bin", "group1-shard17of52.bin", "group1-shard18of52.bin", "group1-shard19of52.bin", "group1-shard20of52.bin", "group1-shard21of52.bin", "group1-shard22of52.bin", "group1-shard23of52.bin", "group1-shard24of52.bin", "group1-shard25of52.bin", "group1-shard26of52.bin", "group1-shard27of52.bin", "group1-shard28of52.bin", "group1-shard29of52.bin", "group1-shard30of52.bin", "group1-shard31of52.bin", "group1-shard32of52.bin", "group1-shard33of52.bin", "group1-shard34of52.bin", "group1-shard35of52.bin", "group1-shard36of52.bin", "group1-shard37of52.bin", "group1-shard38of52.bin", "group1-shard39of52.bin", "group1-shard40of52.bin", "group1-shard41of52.bin", "group1-shard42of52.bin", "group1-shard43of52.bin", "group1-shard44of52.bin", "group1-shard45of52.bin", "group1-shard46of52.bin", "group1-shard47of52.bin", "group1-shard48of52.bin", "group1-shard49of52.bin", "group1-shard50of52.bin", "group1-shard51of52.bin", "group1-shard52of52.bin"], "weights": [{"name": "StatefulPartitionedCall/functional_9/conv2d_transpose_32/strided_slice/stack", "shape": [1], "dtype": "int32"}, {"name": "StatefulPartitionedCall/functional_9/conv2d_transpose_32/strided_slice/stack_1", "shape": [1], "dtype": "int32"}, {"name": "StatefulPartitionedCall/functional_9/conv2d_transpose_32/strided_slice/stack_2", "shape": [1], "dtype": "int32"}, {"name": "StatefulPartitionedCall/functional_9/conv2d_transpose_32/stack/1", "shape": [], "dtype": "int32"}, {"name": "StatefulPartitionedCall/functional_9/conv2d_transpose_32/stack/2", "shape": [], "dtype": "int32"}, {"name": "StatefulPartitionedCall/functional_9/conv2d_transpose_32/stack/3", "shape": [], "dtype": "int32"}, {"name": "unknown_70", "shape": [4, 4, 3, 128], "dtype": "float32"}, {"name": "StatefulPartitionedCall/functional_9/sequential_68/conv2d_transpose_31/strided_slice/stack", "shape": [1], "dtype": "int32"}, {"name": "StatefulPartitionedCall/functional_9/sequential_68/conv2d_transpose_31/strided_slice/stack_1", "shape": [1], "dtype": "int32"}, {"name": "StatefulPartitionedCall/functional_9/sequential_68/conv2d_transpose_31/strided_slice/stack_2", "shape": [1], "dtype": "int32"}, {"name": "StatefulPartitionedCall/functional_9/sequential_68/conv2d_transpose_31/stack/1", "shape": [], "dtype": "int32"}, {"name": "StatefulPartitionedCall/functional_9/sequential_68/conv2d_transpose_31/stack/2", "shape": [], "dtype": "int32"}, {"name": "StatefulPartitionedCall/functional_9/sequential_68/conv2d_transpose_31/stack/3", "shape": [], "dtype": "int32"}, {"name": "unknown_65", "shape": [4, 4, 64, 256], "dtype": "float32"}, {"name": "StatefulPartitionedCall/functional_9/sequential_67/conv2d_transpose_30/strided_slice/stack", "shape": [1], "dtype": "int32"}, {"name": "StatefulPartitionedCall/functional_9/sequential_67/conv2d_transpose_30/strided_slice/stack_1", "shape": [1], "dtype": "int32"}, {"name": "StatefulPartitionedCall/functional_9/sequential_67/conv2d_transpose_30/strided_slice/stack_2", "shape": [1], "dtype": "int32"}, {"name": "StatefulPartitionedCall/functional_9/sequential_67/conv2d_transpose_30/stack/1", "shape": [], "dtype": "int32"}, {"name": "StatefulPartitionedCall/functional_9/sequential_67/conv2d_transpose_30/stack/2", "shape": [], "dtype": "int32"}, {"name": "StatefulPartitionedCall/functional_9/sequential_67/conv2d_transpose_30/stack/3", "shape": [], "dtype": "int32"}, {"name": "unknown_60", "shape": [4, 4, 128, 512], "dtype": "float32"}, {"name": "StatefulPartitionedCall/functional_9/sequential_66/conv2d_transpose_29/strided_slice/stack", "shape": [1], "dtype": "int32"}, {"name": "StatefulPartitionedCall/functional_9/sequential_66/conv2d_transpose_29/strided_slice/stack_1", "shape": [1], "dtype": "int32"}, {"name": "StatefulPartitionedCall/functional_9/sequential_66/conv2d_transpose_29/strided_slice/stack_2", "shape": [1], "dtype": "int32"}, {"name": "StatefulPartitionedCall/functional_9/sequential_66/conv2d_transpose_29/stack/1", "shape": [], "dtype": "int32"}, {"name": "StatefulPartitionedCall/functional_9/sequential_66/conv2d_transpose_29/stack/2", "shape": [], "dtype": "int32"}, {"name": "StatefulPartitionedCall/functional_9/sequential_66/conv2d_transpose_29/stack/3", "shape": [], "dtype": "int32"}, {"name": "unknown_55", "shape": [4, 4, 256, 1024], "dtype": "float32"}, {"name": "StatefulPartitionedCall/functional_9/sequential_65/conv2d_transpose_28/strided_slice/stack", "shape": [1], "dtype": "int32"}, {"name": "StatefulPartitionedCall/functional_9/sequential_65/conv2d_transpose_28/strided_slice/stack_1", "shape": [1], "dtype": "int32"}, {"name": "StatefulPartitionedCall/functional_9/sequential_65/conv2d_transpose_28/strided_slice/stack_2", "shape": [1], "dtype": "int32"}, {"name": "StatefulPartitionedCall/functional_9/sequential_65/conv2d_transpose_28/stack/1", "shape": [], "dtype": "int32"}, {"name": "StatefulPartitionedCall/functional_9/sequential_65/conv2d_transpose_28/stack/2", "shape": [], "dtype": "int32"}, {"name": "StatefulPartitionedCall/functional_9/sequential_65/conv2d_transpose_28/stack/3", "shape": [], "dtype": "int32"}, {"name": "unknown_50", "shape": [4, 4, 512, 1024], "dtype": "float32"}, {"name": "StatefulPartitionedCall/functional_9/sequential_64/conv2d_transpose_27/strided_slice/stack", "shape": [1], "dtype": "int32"}, {"name": "StatefulPartitionedCall/functional_9/sequential_64/conv2d_transpose_27/strided_slice/stack_1", "shape": [1], "dtype": "int32"}, {"name": "StatefulPartitionedCall/functional_9/sequential_64/conv2d_transpose_27/strided_slice/stack_2", "shape": [1], "dtype": "int32"}, {"name": "StatefulPartitionedCall/functional_9/sequential_64/conv2d_transpose_27/stack/1", "shape": [], "dtype": "int32"}, {"name": "StatefulPartitionedCall/functional_9/sequential_64/conv2d_transpose_27/stack/2", "shape": [], "dtype": "int32"}, {"name": "StatefulPartitionedCall/functional_9/sequential_64/conv2d_transpose_27/stack/3", "shape": [], "dtype": "int32"}, {"name": "unknown_45", "shape": [4, 4, 512, 1024], "dtype": "float32"}, {"name": "StatefulPartitionedCall/functional_9/sequential_63/conv2d_transpose_26/strided_slice/stack", "shape": [1], "dtype": "int32"}, {"name": "StatefulPartitionedCall/functional_9/sequential_63/conv2d_transpose_26/strided_slice/stack_1", "shape": [1], "dtype": "int32"}, {"name": "StatefulPartitionedCall/functional_9/sequential_63/conv2d_transpose_26/strided_slice/stack_2", "shape": [1], "dtype": "int32"}, {"name": "StatefulPartitionedCall/functional_9/sequential_63/conv2d_transpose_26/stack/1", "shape": [], "dtype": "int32"}, {"name": "StatefulPartitionedCall/functional_9/sequential_63/conv2d_transpose_26/stack/2", "shape": [], "dtype": "int32"}, {"name": "StatefulPartitionedCall/functional_9/sequential_63/conv2d_transpose_26/stack/3", "shape": [], "dtype": "int32"}, {"name": "unknown_40", "shape": [4, 4, 512, 1024], "dtype": "float32"}, {"name": "StatefulPartitionedCall/functional_9/sequential_62/conv2d_transpose_25/strided_slice/stack", "shape": [1], "dtype": "int32"}, {"name": "StatefulPartitionedCall/functional_9/sequential_62/conv2d_transpose_25/strided_slice/stack_1", "shape": [1], "dtype": "int32"}, {"name": "StatefulPartitionedCall/functional_9/sequential_62/conv2d_transpose_25/strided_slice/stack_2", "shape": [1], "dtype": "int32"}, {"name": "StatefulPartitionedCall/functional_9/sequential_62/conv2d_transpose_25/stack/1", "shape": [], "dtype": "int32"}, {"name": "StatefulPartitionedCall/functional_9/sequential_62/conv2d_transpose_25/stack/2", "shape": [], "dtype": "int32"}, {"name": "StatefulPartitionedCall/functional_9/sequential_62/conv2d_transpose_25/stack/3", "shape": [], "dtype": "int32"}, {"name": "unknown_35", "shape": [4, 4, 512, 512], "dtype": "float32"}, {"name": "StatefulPartitionedCall/functional_9/concatenate_22/concat/axis", "shape": [], "dtype": "int32"}, {"name": "StatefulPartitionedCall/functional_9/concatenate_23/concat/axis", "shape": [], "dtype": "int32"}, {"name": "StatefulPartitionedCall/functional_9/concatenate_24/concat/axis", "shape": [], "dtype": "int32"}, {"name": "StatefulPartitionedCall/functional_9/concatenate_25/concat/axis", "shape": [], "dtype": "int32"}, {"name": "StatefulPartitionedCall/functional_9/concatenate_26/concat/axis", "shape": [], "dtype": "int32"}, {"name": "StatefulPartitionedCall/functional_9/concatenate_27/concat/axis", "shape": [], "dtype": "int32"}, {"name": "unknown", "shape": [4, 4, 3, 64], "dtype": "float32"}, {"name": "StatefulPartitionedCall/functional_9/concatenate_28/concat/axis", "shape": [], "dtype": "int32"}, {"name": "unknown_71", "shape": [3], "dtype": "float32"}, {"name": "StatefulPartitionedCall/functional_9/sequential_55/conv2d_35/Conv2D_weights", "shape": [4, 4, 64, 128], "dtype": "float32"}, {"name": "StatefulPartitionedCall/functional_9/sequential_55/conv2d_35/Conv2D_bn_offset", "shape": [128], "dtype": "float32"}, {"name": "StatefulPartitionedCall/functional_9/sequential_56/conv2d_36/Conv2D_weights", "shape": [4, 4, 128, 256], "dtype": "float32"}, {"name": "StatefulPartitionedCall/functional_9/sequential_56/conv2d_36/Conv2D_bn_offset", "shape": [256], "dtype": "float32"}, {"name": "StatefulPartitionedCall/functional_9/sequential_57/conv2d_37/Conv2D_weights", "shape": [4, 4, 256, 512], "dtype": "float32"}, {"name": "StatefulPartitionedCall/functional_9/sequential_57/conv2d_37/Conv2D_bn_offset", "shape": [512], "dtype": "float32"}, {"name": "StatefulPartitionedCall/functional_9/sequential_58/conv2d_38/Conv2D_weights", "shape": [4, 4, 512, 512], "dtype": "float32"}, {"name": "StatefulPartitionedCall/functional_9/sequential_62/batch_normalization_58/FusedBatchNormV3/Scaled", "shape": [512], "dtype": "float32"}, {"name": "StatefulPartitionedCall/functional_9/sequential_58/conv2d_38/Conv2D_bn_offset", "shape": [512], "dtype": "float32"}, {"name": "StatefulPartitionedCall/functional_9/sequential_59/conv2d_39/Conv2D_weights", "shape": [4, 4, 512, 512], "dtype": "float32"}, {"name": "StatefulPartitionedCall/functional_9/sequential_59/conv2d_39/Conv2D_bn_offset", "shape": [512], "dtype": "float32"}, {"name": "StatefulPartitionedCall/functional_9/sequential_60/conv2d_40/Conv2D_weights", "shape": [4, 4, 512, 512], "dtype": "float32"}, {"name": "StatefulPartitionedCall/functional_9/sequential_60/conv2d_40/Conv2D_bn_offset", "shape": [512], "dtype": "float32"}, {"name": "StatefulPartitionedCall/functional_9/sequential_61/conv2d_41/Conv2D_weights", "shape": [4, 4, 512, 512], "dtype": "float32"}, {"name": "StatefulPartitionedCall/functional_9/sequential_62/batch_normalization_58/FusedBatchNormV3/Offset", "shape": [512], "dtype": "float32"}, {"name": "StatefulPartitionedCall/functional_9/sequential_61/conv2d_41/Conv2D_bn_offset", "shape": [512], "dtype": "float32"}, {"name": "StatefulPartitionedCall/functional_9/sequential_68/batch_normalization_64/FusedBatchNormV3/Scaled", "shape": [64], "dtype": "float32"}, {"name": "StatefulPartitionedCall/functional_9/sequential_68/batch_normalization_64/FusedBatchNormV3/Offset", "shape": [64], "dtype": "float32"}, {"name": "StatefulPartitionedCall/functional_9/sequential_67/batch_normalization_63/FusedBatchNormV3/Scaled", "shape": [128], "dtype": "float32"}, {"name": "StatefulPartitionedCall/functional_9/sequential_67/batch_normalization_63/FusedBatchNormV3/Offset", "shape": [128], "dtype": "float32"}, {"name": "StatefulPartitionedCall/functional_9/sequential_66/batch_normalization_62/FusedBatchNormV3/Scaled", "shape": [256], "dtype": "float32"}, {"name": "StatefulPartitionedCall/functional_9/sequential_66/batch_normalization_62/FusedBatchNormV3/Offset", "shape": [256], "dtype": "float32"}, {"name": "StatefulPartitionedCall/functional_9/sequential_65/batch_normalization_61/FusedBatchNormV3/Scaled", "shape": [512], "dtype": "float32"}, {"name": "StatefulPartitionedCall/functional_9/sequential_65/batch_normalization_61/FusedBatchNormV3/Offset", "shape": [512], "dtype": "float32"}, {"name": "StatefulPartitionedCall/functional_9/sequential_64/batch_normalization_60/FusedBatchNormV3/Scaled", "shape": [512], "dtype": "float32"}, {"name": "StatefulPartitionedCall/functional_9/sequential_64/batch_normalization_60/FusedBatchNormV3/Offset", "shape": [512], "dtype": "float32"}, {"name": "StatefulPartitionedCall/functional_9/sequential_63/batch_normalization_59/FusedBatchNormV3/Scaled", "shape": [512], "dtype": "float32"}, {"name": "StatefulPartitionedCall/functional_9/sequential_63/batch_normalization_59/FusedBatchNormV3/Offset", "shape": [512], "dtype": "float32"}]}]}