{"format": "graph-model", "generatedBy": "2.3.0", "convertedBy": "TensorFlow.js Converter v2.3.0", "userDefinedMetadata": {"signature": {"inputs": {"input_9:0": {"name": "input_9:0", "dtype": "DT_FLOAT", "tensorShape": {"dim": [{"size": "-1"}, {"size": "256"}, {"size": "256"}, {"size": "1"}]}}}, "outputs": {"Identity:0": {"name": "Identity:0", "dtype": "DT_FLOAT", "tensorShape": {"dim": [{"size": "-1"}, {"size": "256"}, {"size": "256"}, {"size": "3"}]}}}}}, "modelTopology": {"node": [{"name": "StatefulPartitionedCall/functional_27/conv2d_transpose_75/strided_slice/stack", "op": "Const", "attr": {"value": {"tensor": {"dtype": "DT_INT32", "tensorShape": {"dim": [{"size": "1"}]}}}, "dtype": {"type": "DT_INT32"}}}, {"name": "StatefulPartitionedCall/functional_27/conv2d_transpose_75/strided_slice/stack_1", "op": "Const", "attr": {"dtype": {"type": "DT_INT32"}, "value": {"tensor": {"dtype": "DT_INT32", "tensorShape": {"dim": [{"size": "1"}]}}}}}, {"name": "StatefulPartitionedCall/functional_27/conv2d_transpose_75/strided_slice/stack_2", "op": "Const", "attr": {"value": {"tensor": {"dtype": "DT_INT32", "tensorShape": {"dim": [{"size": "1"}]}}}, "dtype": {"type": "DT_INT32"}}}, {"name": "StatefulPartitionedCall/functional_27/conv2d_transpose_75/stack/1", "op": "Const", "attr": {"value": {"tensor": {"dtype": "DT_INT32", "tensorShape": {}}}, "dtype": {"type": "DT_INT32"}}}, {"name": "StatefulPartitionedCall/functional_27/conv2d_transpose_75/stack/2", "op": "Const", "attr": {"dtype": {"type": "DT_INT32"}, "value": {"tensor": {"dtype": "DT_INT32", "tensorShape": {}}}}}, {"name": "StatefulPartitionedCall/functional_27/conv2d_transpose_75/stack/3", "op": "Const", "attr": {"value": {"tensor": {"dtype": "DT_INT32", "tensorShape": {}}}, "dtype": {"type": "DT_INT32"}}}, {"name": "unknown_70", "op": "Const", "attr": {"value": {"tensor": {"dtype": "DT_FLOAT", "tensorShape": {"dim": [{"size": "4"}, {"size": "4"}, {"size": "3"}, {"size": "128"}]}}}, "dtype": {"type": "DT_FLOAT"}}}, {"name": "StatefulPartitionedCall/functional_27/sequential_161/conv2d_transpose_74/strided_slice/stack", "op": "Const", "attr": {"value": {"tensor": {"dtype": "DT_INT32", "tensorShape": {"dim": [{"size": "1"}]}}}, "dtype": {"type": "DT_INT32"}}}, {"name": "StatefulPartitionedCall/functional_27/sequential_161/conv2d_transpose_74/strided_slice/stack_1", "op": "Const", "attr": {"dtype": {"type": "DT_INT32"}, "value": {"tensor": {"dtype": "DT_INT32", "tensorShape": {"dim": [{"size": "1"}]}}}}}, {"name": "StatefulPartitionedCall/functional_27/sequential_161/conv2d_transpose_74/strided_slice/stack_2", "op": "Const", "attr": {"value": {"tensor": {"dtype": "DT_INT32", "tensorShape": {"dim": [{"size": "1"}]}}}, "dtype": {"type": "DT_INT32"}}}, {"name": "StatefulPartitionedCall/functional_27/sequential_161/conv2d_transpose_74/stack/1", "op": "Const", "attr": {"dtype": {"type": "DT_INT32"}, "value": {"tensor": {"dtype": "DT_INT32", "tensorShape": {}}}}}, {"name": "StatefulPartitionedCall/functional_27/sequential_161/conv2d_transpose_74/stack/2", "op": "Const", "attr": {"value": {"tensor": {"dtype": "DT_INT32", "tensorShape": {}}}, "dtype": {"type": "DT_INT32"}}}, {"name": "StatefulPartitionedCall/functional_27/sequential_161/conv2d_transpose_74/stack/3", "op": "Const", "attr": {"dtype": {"type": "DT_INT32"}, "value": {"tensor": {"dtype": "DT_INT32", "tensorShape": {}}}}}, {"name": "unknown_65", "op": "Const", "attr": {"dtype": {"type": "DT_FLOAT"}, "value": {"tensor": {"dtype": "DT_FLOAT", "tensorShape": {"dim": [{"size": "4"}, {"size": "4"}, {"size": "64"}, {"size": "256"}]}}}}}, {"name": "StatefulPartitionedCall/functional_27/sequential_160/conv2d_transpose_73/strided_slice/stack", "op": "Const", "attr": {"dtype": {"type": "DT_INT32"}, "value": {"tensor": {"dtype": "DT_INT32", "tensorShape": {"dim": [{"size": "1"}]}}}}}, {"name": "StatefulPartitionedCall/functional_27/sequential_160/conv2d_transpose_73/strided_slice/stack_1", "op": "Const", "attr": {"dtype": {"type": "DT_INT32"}, "value": {"tensor": {"dtype": "DT_INT32", "tensorShape": {"dim": [{"size": "1"}]}}}}}, {"name": "StatefulPartitionedCall/functional_27/sequential_160/conv2d_transpose_73/strided_slice/stack_2", "op": "Const", "attr": {"value": {"tensor": {"dtype": "DT_INT32", "tensorShape": {"dim": [{"size": "1"}]}}}, "dtype": {"type": "DT_INT32"}}}, {"name": "StatefulPartitionedCall/functional_27/sequential_160/conv2d_transpose_73/stack/1", "op": "Const", "attr": {"value": {"tensor": {"dtype": "DT_INT32", "tensorShape": {}}}, "dtype": {"type": "DT_INT32"}}}, {"name": "StatefulPartitionedCall/functional_27/sequential_160/conv2d_transpose_73/stack/2", "op": "Const", "attr": {"value": {"tensor": {"dtype": "DT_INT32", "tensorShape": {}}}, "dtype": {"type": "DT_INT32"}}}, {"name": "StatefulPartitionedCall/functional_27/sequential_160/conv2d_transpose_73/stack/3", "op": "Const", "attr": {"dtype": {"type": "DT_INT32"}, "value": {"tensor": {"dtype": "DT_INT32", "tensorShape": {}}}}}, {"name": "unknown_60", "op": "Const", "attr": {"dtype": {"type": "DT_FLOAT"}, "value": {"tensor": {"dtype": "DT_FLOAT", "tensorShape": {"dim": [{"size": "4"}, {"size": "4"}, {"size": "128"}, {"size": "512"}]}}}}}, {"name": "StatefulPartitionedCall/functional_27/sequential_159/conv2d_transpose_72/strided_slice/stack", "op": "Const", "attr": {"value": {"tensor": {"dtype": "DT_INT32", "tensorShape": {"dim": [{"size": "1"}]}}}, "dtype": {"type": "DT_INT32"}}}, {"name": "StatefulPartitionedCall/functional_27/sequential_159/conv2d_transpose_72/strided_slice/stack_1", "op": "Const", "attr": {"value": {"tensor": {"dtype": "DT_INT32", "tensorShape": {"dim": [{"size": "1"}]}}}, "dtype": {"type": "DT_INT32"}}}, {"name": "StatefulPartitionedCall/functional_27/sequential_159/conv2d_transpose_72/strided_slice/stack_2", "op": "Const", "attr": {"dtype": {"type": "DT_INT32"}, "value": {"tensor": {"dtype": "DT_INT32", "tensorShape": {"dim": [{"size": "1"}]}}}}}, {"name": "StatefulPartitionedCall/functional_27/sequential_159/conv2d_transpose_72/stack/1", "op": "Const", "attr": {"dtype": {"type": "DT_INT32"}, "value": {"tensor": {"dtype": "DT_INT32", "tensorShape": {}}}}}, {"name": "StatefulPartitionedCall/functional_27/sequential_159/conv2d_transpose_72/stack/2", "op": "Const", "attr": {"value": {"tensor": {"dtype": "DT_INT32", "tensorShape": {}}}, "dtype": {"type": "DT_INT32"}}}, {"name": "StatefulPartitionedCall/functional_27/sequential_159/conv2d_transpose_72/stack/3", "op": "Const", "attr": {"dtype": {"type": "DT_INT32"}, "value": {"tensor": {"dtype": "DT_INT32", "tensorShape": {}}}}}, {"name": "unknown_55", "op": "Const", "attr": {"value": {"tensor": {"dtype": "DT_FLOAT", "tensorShape": {"dim": [{"size": "4"}, {"size": "4"}, {"size": "256"}, {"size": "1024"}]}}}, "dtype": {"type": "DT_FLOAT"}}}, {"name": "StatefulPartitionedCall/functional_27/sequential_158/conv2d_transpose_71/strided_slice/stack", "op": "Const", "attr": {"value": {"tensor": {"dtype": "DT_INT32", "tensorShape": {"dim": [{"size": "1"}]}}}, "dtype": {"type": "DT_INT32"}}}, {"name": "StatefulPartitionedCall/functional_27/sequential_158/conv2d_transpose_71/strided_slice/stack_1", "op": "Const", "attr": {"value": {"tensor": {"dtype": "DT_INT32", "tensorShape": {"dim": [{"size": "1"}]}}}, "dtype": {"type": "DT_INT32"}}}, {"name": "StatefulPartitionedCall/functional_27/sequential_158/conv2d_transpose_71/strided_slice/stack_2", "op": "Const", "attr": {"dtype": {"type": "DT_INT32"}, "value": {"tensor": {"dtype": "DT_INT32", "tensorShape": {"dim": [{"size": "1"}]}}}}}, {"name": "StatefulPartitionedCall/functional_27/sequential_158/conv2d_transpose_71/stack/1", "op": "Const", "attr": {"dtype": {"type": "DT_INT32"}, "value": {"tensor": {"dtype": "DT_INT32", "tensorShape": {}}}}}, {"name": "StatefulPartitionedCall/functional_27/sequential_158/conv2d_transpose_71/stack/2", "op": "Const", "attr": {"value": {"tensor": {"dtype": "DT_INT32", "tensorShape": {}}}, "dtype": {"type": "DT_INT32"}}}, {"name": "StatefulPartitionedCall/functional_27/sequential_158/conv2d_transpose_71/stack/3", "op": "Const", "attr": {"dtype": {"type": "DT_INT32"}, "value": {"tensor": {"dtype": "DT_INT32", "tensorShape": {}}}}}, {"name": "unknown_50", "op": "Const", "attr": {"value": {"tensor": {"dtype": "DT_FLOAT", "tensorShape": {"dim": [{"size": "4"}, {"size": "4"}, {"size": "512"}, {"size": "1024"}]}}}, "dtype": {"type": "DT_FLOAT"}}}, {"name": "StatefulPartitionedCall/functional_27/sequential_157/conv2d_transpose_70/strided_slice/stack", "op": "Const", "attr": {"value": {"tensor": {"dtype": "DT_INT32", "tensorShape": {"dim": [{"size": "1"}]}}}, "dtype": {"type": "DT_INT32"}}}, {"name": "StatefulPartitionedCall/functional_27/sequential_157/conv2d_transpose_70/strided_slice/stack_1", "op": "Const", "attr": {"dtype": {"type": "DT_INT32"}, "value": {"tensor": {"dtype": "DT_INT32", "tensorShape": {"dim": [{"size": "1"}]}}}}}, {"name": "StatefulPartitionedCall/functional_27/sequential_157/conv2d_transpose_70/strided_slice/stack_2", "op": "Const", "attr": {"value": {"tensor": {"dtype": "DT_INT32", "tensorShape": {"dim": [{"size": "1"}]}}}, "dtype": {"type": "DT_INT32"}}}, {"name": "StatefulPartitionedCall/functional_27/sequential_157/conv2d_transpose_70/stack/1", "op": "Const", "attr": {"dtype": {"type": "DT_INT32"}, "value": {"tensor": {"dtype": "DT_INT32", "tensorShape": {}}}}}, {"name": "StatefulPartitionedCall/functional_27/sequential_157/conv2d_transpose_70/stack/2", "op": "Const", "attr": {"value": {"tensor": {"dtype": "DT_INT32", "tensorShape": {}}}, "dtype": {"type": "DT_INT32"}}}, {"name": "StatefulPartitionedCall/functional_27/sequential_157/conv2d_transpose_70/stack/3", "op": "Const", "attr": {"value": {"tensor": {"dtype": "DT_INT32", "tensorShape": {}}}, "dtype": {"type": "DT_INT32"}}}, {"name": "unknown_45", "op": "Const", "attr": {"dtype": {"type": "DT_FLOAT"}, "value": {"tensor": {"dtype": "DT_FLOAT", "tensorShape": {"dim": [{"size": "4"}, {"size": "4"}, {"size": "512"}, {"size": "1024"}]}}}}}, {"name": "StatefulPartitionedCall/functional_27/sequential_156/conv2d_transpose_69/strided_slice/stack", "op": "Const", "attr": {"value": {"tensor": {"dtype": "DT_INT32", "tensorShape": {"dim": [{"size": "1"}]}}}, "dtype": {"type": "DT_INT32"}}}, {"name": "StatefulPartitionedCall/functional_27/sequential_156/conv2d_transpose_69/strided_slice/stack_1", "op": "Const", "attr": {"value": {"tensor": {"dtype": "DT_INT32", "tensorShape": {"dim": [{"size": "1"}]}}}, "dtype": {"type": "DT_INT32"}}}, {"name": "StatefulPartitionedCall/functional_27/sequential_156/conv2d_transpose_69/strided_slice/stack_2", "op": "Const", "attr": {"value": {"tensor": {"dtype": "DT_INT32", "tensorShape": {"dim": [{"size": "1"}]}}}, "dtype": {"type": "DT_INT32"}}}, {"name": "StatefulPartitionedCall/functional_27/sequential_156/conv2d_transpose_69/stack/1", "op": "Const", "attr": {"value": {"tensor": {"dtype": "DT_INT32", "tensorShape": {}}}, "dtype": {"type": "DT_INT32"}}}, {"name": "StatefulPartitionedCall/functional_27/sequential_156/conv2d_transpose_69/stack/2", "op": "Const", "attr": {"value": {"tensor": {"dtype": "DT_INT32", "tensorShape": {}}}, "dtype": {"type": "DT_INT32"}}}, {"name": "StatefulPartitionedCall/functional_27/sequential_156/conv2d_transpose_69/stack/3", "op": "Const", "attr": {"value": {"tensor": {"dtype": "DT_INT32", "tensorShape": {}}}, "dtype": {"type": "DT_INT32"}}}, {"name": "unknown_40", "op": "Const", "attr": {"value": {"tensor": {"dtype": "DT_FLOAT", "tensorShape": {"dim": [{"size": "4"}, {"size": "4"}, {"size": "512"}, {"size": "1024"}]}}}, "dtype": {"type": "DT_FLOAT"}}}, {"name": "StatefulPartitionedCall/functional_27/sequential_155/conv2d_transpose_68/strided_slice/stack", "op": "Const", "attr": {"value": {"tensor": {"dtype": "DT_INT32", "tensorShape": {"dim": [{"size": "1"}]}}}, "dtype": {"type": "DT_INT32"}}}, {"name": "StatefulPartitionedCall/functional_27/sequential_155/conv2d_transpose_68/strided_slice/stack_1", "op": "Const", "attr": {"value": {"tensor": {"dtype": "DT_INT32", "tensorShape": {"dim": [{"size": "1"}]}}}, "dtype": {"type": "DT_INT32"}}}, {"name": "StatefulPartitionedCall/functional_27/sequential_155/conv2d_transpose_68/strided_slice/stack_2", "op": "Const", "attr": {"dtype": {"type": "DT_INT32"}, "value": {"tensor": {"dtype": "DT_INT32", "tensorShape": {"dim": [{"size": "1"}]}}}}}, {"name": "StatefulPartitionedCall/functional_27/sequential_155/conv2d_transpose_68/stack/1", "op": "Const", "attr": {"dtype": {"type": "DT_INT32"}, "value": {"tensor": {"dtype": "DT_INT32", "tensorShape": {}}}}}, {"name": "StatefulPartitionedCall/functional_27/sequential_155/conv2d_transpose_68/stack/2", "op": "Const", "attr": {"dtype": {"type": "DT_INT32"}, "value": {"tensor": {"dtype": "DT_INT32", "tensorShape": {}}}}}, {"name": "StatefulPartitionedCall/functional_27/sequential_155/conv2d_transpose_68/stack/3", "op": "Const", "attr": {"dtype": {"type": "DT_INT32"}, "value": {"tensor": {"dtype": "DT_INT32", "tensorShape": {}}}}}, {"name": "unknown_35", "op": "Const", "attr": {"value": {"tensor": {"dtype": "DT_FLOAT", "tensorShape": {"dim": [{"size": "4"}, {"size": "4"}, {"size": "512"}, {"size": "512"}]}}}, "dtype": {"type": "DT_FLOAT"}}}, {"name": "StatefulPartitionedCall/functional_27/concatenate_61/concat/axis", "op": "Const", "attr": {"dtype": {"type": "DT_INT32"}, "value": {"tensor": {"dtype": "DT_INT32", "tensorShape": {}}}}}, {"name": "StatefulPartitionedCall/functional_27/concatenate_62/concat/axis", "op": "Const", "attr": {"value": {"tensor": {"dtype": "DT_INT32", "tensorShape": {}}}, "dtype": {"type": "DT_INT32"}}}, {"name": "StatefulPartitionedCall/functional_27/concatenate_63/concat/axis", "op": "Const", "attr": {"value": {"tensor": {"dtype": "DT_INT32", "tensorShape": {}}}, "dtype": {"type": "DT_INT32"}}}, {"name": "StatefulPartitionedCall/functional_27/concatenate_64/concat/axis", "op": "Const", "attr": {"dtype": {"type": "DT_INT32"}, "value": {"tensor": {"dtype": "DT_INT32", "tensorShape": {}}}}}, {"name": "StatefulPartitionedCall/functional_27/concatenate_65/concat/axis", "op": "Const", "attr": {"value": {"tensor": {"dtype": "DT_INT32", "tensorShape": {}}}, "dtype": {"type": "DT_INT32"}}}, {"name": "StatefulPartitionedCall/functional_27/concatenate_66/concat/axis", "op": "Const", "attr": {"value": {"tensor": {"dtype": "DT_INT32", "tensorShape": {}}}, "dtype": {"type": "DT_INT32"}}}, {"name": "unknown", "op": "Const", "attr": {"value": {"tensor": {"dtype": "DT_FLOAT", "tensorShape": {"dim": [{"size": "4"}, {"size": "4"}, {"size": "1"}, {"size": "64"}]}}}, "dtype": {"type": "DT_FLOAT"}}}, {"name": "StatefulPartitionedCall/functional_27/concatenate_67/concat/axis", "op": "Const", "attr": {"dtype": {"type": "DT_INT32"}, "value": {"tensor": {"dtype": "DT_INT32", "tensorShape": {}}}}}, {"name": "unknown_71", "op": "Const", "attr": {"value": {"tensor": {"dtype": "DT_FLOAT", "tensorShape": {"dim": [{"size": "3"}]}}}, "dtype": {"type": "DT_FLOAT"}}}, {"name": "input_9", "op": "Placeholder", "attr": {"dtype": {"type": "DT_FLOAT"}, "shape": {"shape": {"dim": [{"size": "-1"}, {"size": "256"}, {"size": "256"}, {"size": "1"}]}}}}, {"name": "StatefulPartitionedCall/functional_27/sequential_148/conv2d_98/Conv2D_weights", "op": "Const", "attr": {"value": {"tensor": {"dtype": "DT_FLOAT", "tensorShape": {"dim": [{"size": "4"}, {"size": "4"}, {"size": "64"}, {"size": "128"}]}}}, "dtype": {"type": "DT_FLOAT"}}}, {"name": "StatefulPartitionedCall/functional_27/sequential_148/conv2d_98/Conv2D_bn_offset", "op": "Const", "attr": {"dtype": {"type": "DT_FLOAT"}, "value": {"tensor": {"dtype": "DT_FLOAT", "tensorShape": {"dim": [{"size": "128"}]}}}}}, {"name": "StatefulPartitionedCall/functional_27/sequential_149/conv2d_99/Conv2D_weights", "op": "Const", "attr": {"dtype": {"type": "DT_FLOAT"}, "value": {"tensor": {"dtype": "DT_FLOAT", "tensorShape": {"dim": [{"size": "4"}, {"size": "4"}, {"size": "128"}, {"size": "256"}]}}}}}, {"name": "StatefulPartitionedCall/functional_27/sequential_149/conv2d_99/Conv2D_bn_offset", "op": "Const", "attr": {"dtype": {"type": "DT_FLOAT"}, "value": {"tensor": {"dtype": "DT_FLOAT", "tensorShape": {"dim": [{"size": "256"}]}}}}}, {"name": "StatefulPartitionedCall/functional_27/sequential_150/conv2d_100/Conv2D_weights", "op": "Const", "attr": {"dtype": {"type": "DT_FLOAT"}, "value": {"tensor": {"dtype": "DT_FLOAT", "tensorShape": {"dim": [{"size": "4"}, {"size": "4"}, {"size": "256"}, {"size": "512"}]}}}}}, {"name": "StatefulPartitionedCall/functional_27/sequential_150/conv2d_100/Conv2D_bn_offset", "op": "Const", "attr": {"dtype": {"type": "DT_FLOAT"}, "value": {"tensor": {"dtype": "DT_FLOAT", "tensorShape": {"dim": [{"size": "512"}]}}}}}, {"name": "StatefulPartitionedCall/functional_27/sequential_151/conv2d_101/Conv2D_weights", "op": "Const", "attr": {"dtype": {"type": "DT_FLOAT"}, "value": {"tensor": {"dtype": "DT_FLOAT", "tensorShape": {"dim": [{"size": "4"}, {"size": "4"}, {"size": "512"}, {"size": "512"}]}}}}}, {"name": "StatefulPartitionedCall/functional_27/sequential_155/batch_normalization_146/FusedBatchNormV3/Scaled", "op": "Const", "attr": {"value": {"tensor": {"dtype": "DT_FLOAT", "tensorShape": {"dim": [{"size": "512"}]}}}, "dtype": {"type": "DT_FLOAT"}}}, {"name": "StatefulPartitionedCall/functional_27/sequential_151/conv2d_101/Conv2D_bn_offset", "op": "Const", "attr": {"value": {"tensor": {"dtype": "DT_FLOAT", "tensorShape": {"dim": [{"size": "512"}]}}}, "dtype": {"type": "DT_FLOAT"}}}, {"name": "StatefulPartitionedCall/functional_27/sequential_152/conv2d_102/Conv2D_weights", "op": "Const", "attr": {"dtype": {"type": "DT_FLOAT"}, "value": {"tensor": {"dtype": "DT_FLOAT", "tensorShape": {"dim": [{"size": "4"}, {"size": "4"}, {"size": "512"}, {"size": "512"}]}}}}}, {"name": "StatefulPartitionedCall/functional_27/sequential_152/conv2d_102/Conv2D_bn_offset", "op": "Const", "attr": {"value": {"tensor": {"dtype": "DT_FLOAT", "tensorShape": {"dim": [{"size": "512"}]}}}, "dtype": {"type": "DT_FLOAT"}}}, {"name": "StatefulPartitionedCall/functional_27/sequential_153/conv2d_103/Conv2D_weights", "op": "Const", "attr": {"value": {"tensor": {"dtype": "DT_FLOAT", "tensorShape": {"dim": [{"size": "4"}, {"size": "4"}, {"size": "512"}, {"size": "512"}]}}}, "dtype": {"type": "DT_FLOAT"}}}, {"name": "StatefulPartitionedCall/functional_27/sequential_153/conv2d_103/Conv2D_bn_offset", "op": "Const", "attr": {"value": {"tensor": {"dtype": "DT_FLOAT", "tensorShape": {"dim": [{"size": "512"}]}}}, "dtype": {"type": "DT_FLOAT"}}}, {"name": "StatefulPartitionedCall/functional_27/sequential_154/conv2d_104/Conv2D_weights", "op": "Const", "attr": {"dtype": {"type": "DT_FLOAT"}, "value": {"tensor": {"dtype": "DT_FLOAT", "tensorShape": {"dim": [{"size": "4"}, {"size": "4"}, {"size": "512"}, {"size": "512"}]}}}}}, {"name": "StatefulPartitionedCall/functional_27/sequential_155/batch_normalization_146/FusedBatchNormV3/Offset", "op": "Const", "attr": {"value": {"tensor": {"dtype": "DT_FLOAT", "tensorShape": {"dim": [{"size": "512"}]}}}, "dtype": {"type": "DT_FLOAT"}}}, {"name": "StatefulPartitionedCall/functional_27/sequential_154/conv2d_104/Conv2D_bn_offset", "op": "Const", "attr": {"value": {"tensor": {"dtype": "DT_FLOAT", "tensorShape": {"dim": [{"size": "512"}]}}}, "dtype": {"type": "DT_FLOAT"}}}, {"name": "StatefulPartitionedCall/functional_27/sequential_161/batch_normalization_152/FusedBatchNormV3/Scaled", "op": "Const", "attr": {"dtype": {"type": "DT_FLOAT"}, "value": {"tensor": {"dtype": "DT_FLOAT", "tensorShape": {"dim": [{"size": "64"}]}}}}}, {"name": "StatefulPartitionedCall/functional_27/sequential_161/batch_normalization_152/FusedBatchNormV3/Offset", "op": "Const", "attr": {"value": {"tensor": {"dtype": "DT_FLOAT", "tensorShape": {"dim": [{"size": "64"}]}}}, "dtype": {"type": "DT_FLOAT"}}}, {"name": "StatefulPartitionedCall/functional_27/sequential_160/batch_normalization_151/FusedBatchNormV3/Scaled", "op": "Const", "attr": {"value": {"tensor": {"dtype": "DT_FLOAT", "tensorShape": {"dim": [{"size": "128"}]}}}, "dtype": {"type": "DT_FLOAT"}}}, {"name": "StatefulPartitionedCall/functional_27/sequential_160/batch_normalization_151/FusedBatchNormV3/Offset", "op": "Const", "attr": {"value": {"tensor": {"dtype": "DT_FLOAT", "tensorShape": {"dim": [{"size": "128"}]}}}, "dtype": {"type": "DT_FLOAT"}}}, {"name": "StatefulPartitionedCall/functional_27/sequential_159/batch_normalization_150/FusedBatchNormV3/Scaled", "op": "Const", "attr": {"dtype": {"type": "DT_FLOAT"}, "value": {"tensor": {"dtype": "DT_FLOAT", "tensorShape": {"dim": [{"size": "256"}]}}}}}, {"name": "StatefulPartitionedCall/functional_27/sequential_159/batch_normalization_150/FusedBatchNormV3/Offset", "op": "Const", "attr": {"dtype": {"type": "DT_FLOAT"}, "value": {"tensor": {"dtype": "DT_FLOAT", "tensorShape": {"dim": [{"size": "256"}]}}}}}, {"name": "StatefulPartitionedCall/functional_27/sequential_158/batch_normalization_149/FusedBatchNormV3/Scaled", "op": "Const", "attr": {"dtype": {"type": "DT_FLOAT"}, "value": {"tensor": {"dtype": "DT_FLOAT", "tensorShape": {"dim": [{"size": "512"}]}}}}}, {"name": "StatefulPartitionedCall/functional_27/sequential_158/batch_normalization_149/FusedBatchNormV3/Offset", "op": "Const", "attr": {"dtype": {"type": "DT_FLOAT"}, "value": {"tensor": {"dtype": "DT_FLOAT", "tensorShape": {"dim": [{"size": "512"}]}}}}}, {"name": "StatefulPartitionedCall/functional_27/sequential_157/batch_normalization_148/FusedBatchNormV3/Scaled", "op": "Const", "attr": {"value": {"tensor": {"dtype": "DT_FLOAT", "tensorShape": {"dim": [{"size": "512"}]}}}, "dtype": {"type": "DT_FLOAT"}}}, {"name": "StatefulPartitionedCall/functional_27/sequential_157/batch_normalization_148/FusedBatchNormV3/Offset", "op": "Const", "attr": {"dtype": {"type": "DT_FLOAT"}, "value": {"tensor": {"dtype": "DT_FLOAT", "tensorShape": {"dim": [{"size": "512"}]}}}}}, {"name": "StatefulPartitionedCall/functional_27/sequential_156/batch_normalization_147/FusedBatchNormV3/Scaled", "op": "Const", "attr": {"dtype": {"type": "DT_FLOAT"}, "value": {"tensor": {"dtype": "DT_FLOAT", "tensorShape": {"dim": [{"size": "512"}]}}}}}, {"name": "StatefulPartitionedCall/functional_27/sequential_156/batch_normalization_147/FusedBatchNormV3/Offset", "op": "Const", "attr": {"value": {"tensor": {"dtype": "DT_FLOAT", "tensorShape": {"dim": [{"size": "512"}]}}}, "dtype": {"type": "DT_FLOAT"}}}, {"name": "StatefulPartitionedCall/functional_27/sequential_147/conv2d_97/Conv2D", "op": "Conv2D", "input": ["input_9", "unknown"], "device": "/device:CPU:0", "attr": {"padding": {"s": "U0FNRQ=="}, "strides": {"list": {"i": ["1", "2", "2", "1"]}}, "data_format": {"s": "TkhXQw=="}, "dilations": {"list": {"i": ["1", "1", "1", "1"]}}, "T": {"type": "DT_FLOAT"}, "use_cudnn_on_gpu": {"b": true}, "explicit_paddings": {"list": {}}}}, {"name": "StatefulPartitionedCall/functional_27/sequential_147/leaky_re_lu_92/LeakyRelu", "op": "LeakyRelu", "input": ["StatefulPartitionedCall/functional_27/sequential_147/conv2d_97/Conv2D"], "attr": {"T": {"type": "DT_FLOAT"}, "alpha": {"f": 0.3}}}, {"name": "StatefulPartitionedCall/functional_27/sequential_148/batch_normalization_139/FusedBatchNormV3", "op": "_FusedConv2D", "input": ["StatefulPartitionedCall/functional_27/sequential_147/leaky_re_lu_92/LeakyRelu", "StatefulPartitionedCall/functional_27/sequential_148/conv2d_98/Conv2D_weights", "StatefulPartitionedCall/functional_27/sequential_148/conv2d_98/Conv2D_bn_offset"], "device": "/device:CPU:0", "attr": {"T": {"type": "DT_FLOAT"}, "explicit_paddings": {"list": {}}, "strides": {"list": {"i": ["1", "2", "2", "1"]}}, "dilations": {"list": {"i": ["1", "1", "1", "1"]}}, "num_args": {"i": "1"}, "data_format": {"s": "TkhXQw=="}, "fused_ops": {"list": {"s": ["Qmlhc0FkZA=="]}}, "use_cudnn_on_gpu": {"b": true}, "epsilon": {"f": 0.0}, "padding": {"s": "U0FNRQ=="}}}, {"name": "StatefulPartitionedCall/functional_27/sequential_148/leaky_re_lu_93/LeakyRelu", "op": "LeakyRelu", "input": ["StatefulPartitionedCall/functional_27/sequential_148/batch_normalization_139/FusedBatchNormV3"], "attr": {"alpha": {"f": 0.3}, "T": {"type": "DT_FLOAT"}}}, {"name": "StatefulPartitionedCall/functional_27/sequential_149/batch_normalization_140/FusedBatchNormV3", "op": "_FusedConv2D", "input": ["StatefulPartitionedCall/functional_27/sequential_148/leaky_re_lu_93/LeakyRelu", "StatefulPartitionedCall/functional_27/sequential_149/conv2d_99/Conv2D_weights", "StatefulPartitionedCall/functional_27/sequential_149/conv2d_99/Conv2D_bn_offset"], "device": "/device:CPU:0", "attr": {"epsilon": {"f": 0.0}, "T": {"type": "DT_FLOAT"}, "use_cudnn_on_gpu": {"b": true}, "dilations": {"list": {"i": ["1", "1", "1", "1"]}}, "data_format": {"s": "TkhXQw=="}, "fused_ops": {"list": {"s": ["Qmlhc0FkZA=="]}}, "explicit_paddings": {"list": {}}, "strides": {"list": {"i": ["1", "2", "2", "1"]}}, "num_args": {"i": "1"}, "padding": {"s": "U0FNRQ=="}}}, {"name": "StatefulPartitionedCall/functional_27/sequential_149/leaky_re_lu_94/LeakyRelu", "op": "LeakyRelu", "input": ["StatefulPartitionedCall/functional_27/sequential_149/batch_normalization_140/FusedBatchNormV3"], "attr": {"alpha": {"f": 0.3}, "T": {"type": "DT_FLOAT"}}}, {"name": "StatefulPartitionedCall/functional_27/sequential_150/batch_normalization_141/FusedBatchNormV3", "op": "_FusedConv2D", "input": ["StatefulPartitionedCall/functional_27/sequential_149/leaky_re_lu_94/LeakyRelu", "StatefulPartitionedCall/functional_27/sequential_150/conv2d_100/Conv2D_weights", "StatefulPartitionedCall/functional_27/sequential_150/conv2d_100/Conv2D_bn_offset"], "device": "/device:CPU:0", "attr": {"use_cudnn_on_gpu": {"b": true}, "epsilon": {"f": 0.0}, "fused_ops": {"list": {"s": ["Qmlhc0FkZA=="]}}, "strides": {"list": {"i": ["1", "2", "2", "1"]}}, "dilations": {"list": {"i": ["1", "1", "1", "1"]}}, "data_format": {"s": "TkhXQw=="}, "padding": {"s": "U0FNRQ=="}, "num_args": {"i": "1"}, "explicit_paddings": {"list": {}}, "T": {"type": "DT_FLOAT"}}}, {"name": "StatefulPartitionedCall/functional_27/sequential_150/leaky_re_lu_95/LeakyRelu", "op": "LeakyRelu", "input": ["StatefulPartitionedCall/functional_27/sequential_150/batch_normalization_141/FusedBatchNormV3"], "attr": {"T": {"type": "DT_FLOAT"}, "alpha": {"f": 0.3}}}, {"name": "StatefulPartitionedCall/functional_27/sequential_151/batch_normalization_142/FusedBatchNormV3", "op": "_FusedConv2D", "input": ["StatefulPartitionedCall/functional_27/sequential_150/leaky_re_lu_95/LeakyRelu", "StatefulPartitionedCall/functional_27/sequential_151/conv2d_101/Conv2D_weights", "StatefulPartitionedCall/functional_27/sequential_151/conv2d_101/Conv2D_bn_offset"], "device": "/device:CPU:0", "attr": {"data_format": {"s": "TkhXQw=="}, "num_args": {"i": "1"}, "epsilon": {"f": 0.0}, "fused_ops": {"list": {"s": ["Qmlhc0FkZA=="]}}, "use_cudnn_on_gpu": {"b": true}, "T": {"type": "DT_FLOAT"}, "strides": {"list": {"i": ["1", "2", "2", "1"]}}, "explicit_paddings": {"list": {}}, "padding": {"s": "U0FNRQ=="}, "dilations": {"list": {"i": ["1", "1", "1", "1"]}}}}, {"name": "StatefulPartitionedCall/functional_27/sequential_151/leaky_re_lu_96/LeakyRelu", "op": "LeakyRelu", "input": ["StatefulPartitionedCall/functional_27/sequential_151/batch_normalization_142/FusedBatchNormV3"], "attr": {"alpha": {"f": 0.3}, "T": {"type": "DT_FLOAT"}}}, {"name": "StatefulPartitionedCall/functional_27/sequential_152/batch_normalization_143/FusedBatchNormV3", "op": "_FusedConv2D", "input": ["StatefulPartitionedCall/functional_27/sequential_151/leaky_re_lu_96/LeakyRelu", "StatefulPartitionedCall/functional_27/sequential_152/conv2d_102/Conv2D_weights", "StatefulPartitionedCall/functional_27/sequential_152/conv2d_102/Conv2D_bn_offset"], "device": "/device:CPU:0", "attr": {"fused_ops": {"list": {"s": ["Qmlhc0FkZA=="]}}, "strides": {"list": {"i": ["1", "2", "2", "1"]}}, "T": {"type": "DT_FLOAT"}, "num_args": {"i": "1"}, "use_cudnn_on_gpu": {"b": true}, "explicit_paddings": {"list": {}}, "dilations": {"list": {"i": ["1", "1", "1", "1"]}}, "padding": {"s": "U0FNRQ=="}, "data_format": {"s": "TkhXQw=="}, "epsilon": {"f": 0.0}}}, {"name": "StatefulPartitionedCall/functional_27/sequential_152/leaky_re_lu_97/LeakyRelu", "op": "LeakyRelu", "input": ["StatefulPartitionedCall/functional_27/sequential_152/batch_normalization_143/FusedBatchNormV3"], "attr": {"T": {"type": "DT_FLOAT"}, "alpha": {"f": 0.3}}}, {"name": "StatefulPartitionedCall/functional_27/sequential_153/batch_normalization_144/FusedBatchNormV3", "op": "_FusedConv2D", "input": ["StatefulPartitionedCall/functional_27/sequential_152/leaky_re_lu_97/LeakyRelu", "StatefulPartitionedCall/functional_27/sequential_153/conv2d_103/Conv2D_weights", "StatefulPartitionedCall/functional_27/sequential_153/conv2d_103/Conv2D_bn_offset"], "device": "/device:CPU:0", "attr": {"strides": {"list": {"i": ["1", "2", "2", "1"]}}, "explicit_paddings": {"list": {}}, "padding": {"s": "U0FNRQ=="}, "use_cudnn_on_gpu": {"b": true}, "T": {"type": "DT_FLOAT"}, "epsilon": {"f": 0.0}, "fused_ops": {"list": {"s": ["Qmlhc0FkZA=="]}}, "num_args": {"i": "1"}, "dilations": {"list": {"i": ["1", "1", "1", "1"]}}, "data_format": {"s": "TkhXQw=="}}}, {"name": "StatefulPartitionedCall/functional_27/sequential_153/leaky_re_lu_98/LeakyRelu", "op": "LeakyRelu", "input": ["StatefulPartitionedCall/functional_27/sequential_153/batch_normalization_144/FusedBatchNormV3"], "attr": {"alpha": {"f": 0.3}, "T": {"type": "DT_FLOAT"}}}, {"name": "StatefulPartitionedCall/functional_27/sequential_154/batch_normalization_145/FusedBatchNormV3", "op": "_FusedConv2D", "input": ["StatefulPartitionedCall/functional_27/sequential_153/leaky_re_lu_98/LeakyRelu", "StatefulPartitionedCall/functional_27/sequential_154/conv2d_104/Conv2D_weights", "StatefulPartitionedCall/functional_27/sequential_154/conv2d_104/Conv2D_bn_offset"], "device": "/device:CPU:0", "attr": {"use_cudnn_on_gpu": {"b": true}, "T": {"type": "DT_FLOAT"}, "padding": {"s": "U0FNRQ=="}, "fused_ops": {"list": {"s": ["Qmlhc0FkZA=="]}}, "num_args": {"i": "1"}, "strides": {"list": {"i": ["1", "2", "2", "1"]}}, "data_format": {"s": "TkhXQw=="}, "epsilon": {"f": 0.0}, "dilations": {"list": {"i": ["1", "1", "1", "1"]}}, "explicit_paddings": {"list": {}}}}, {"name": "StatefulPartitionedCall/functional_27/sequential_154/leaky_re_lu_99/LeakyRelu", "op": "LeakyRelu", "input": ["StatefulPartitionedCall/functional_27/sequential_154/batch_normalization_145/FusedBatchNormV3"], "attr": {"T": {"type": "DT_FLOAT"}, "alpha": {"f": 0.3}}}, {"name": "StatefulPartitionedCall/functional_27/sequential_155/conv2d_transpose_68/Shape", "op": "Shape", "input": ["StatefulPartitionedCall/functional_27/sequential_154/leaky_re_lu_99/LeakyRelu"], "attr": {"T": {"type": "DT_FLOAT"}, "out_type": {"type": "DT_INT32"}}}, {"name": "StatefulPartitionedCall/functional_27/sequential_155/conv2d_transpose_68/strided_slice", "op": "StridedSlice", "input": ["StatefulPartitionedCall/functional_27/sequential_155/conv2d_transpose_68/Shape", "StatefulPartitionedCall/functional_27/sequential_155/conv2d_transpose_68/strided_slice/stack", "StatefulPartitionedCall/functional_27/sequential_155/conv2d_transpose_68/strided_slice/stack_1", "StatefulPartitionedCall/functional_27/sequential_155/conv2d_transpose_68/strided_slice/stack_2"], "attr": {"new_axis_mask": {"i": "0"}, "T": {"type": "DT_INT32"}, "begin_mask": {"i": "0"}, "ellipsis_mask": {"i": "0"}, "Index": {"type": "DT_INT32"}, "end_mask": {"i": "0"}, "shrink_axis_mask": {"i": "1"}}}, {"name": "StatefulPartitionedCall/functional_27/sequential_155/conv2d_transpose_68/stack", "op": "Pack", "input": ["StatefulPartitionedCall/functional_27/sequential_155/conv2d_transpose_68/strided_slice", "StatefulPartitionedCall/functional_27/sequential_155/conv2d_transpose_68/stack/1", "StatefulPartitionedCall/functional_27/sequential_155/conv2d_transpose_68/stack/2", "StatefulPartitionedCall/functional_27/sequential_155/conv2d_transpose_68/stack/3"], "attr": {"axis": {"i": "0"}, "T": {"type": "DT_INT32"}, "N": {"i": "4"}}}, {"name": "StatefulPartitionedCall/functional_27/sequential_155/conv2d_transpose_68/conv2d_transpose", "op": "Conv2DBackpropInput", "input": ["StatefulPartitionedCall/functional_27/sequential_155/conv2d_transpose_68/stack", "unknown_35", "StatefulPartitionedCall/functional_27/sequential_154/leaky_re_lu_99/LeakyRelu"], "attr": {"dilations": {"list": {"i": ["1", "1", "1", "1"]}}, "explicit_paddings": {"list": {}}, "T": {"type": "DT_FLOAT"}, "use_cudnn_on_gpu": {"b": true}, "data_format": {"s": "TkhXQw=="}, "padding": {"s": "U0FNRQ=="}, "strides": {"list": {"i": ["1", "2", "2", "1"]}}}}, {"name": "StatefulPartitionedCall/functional_27/sequential_155/batch_normalization_146/FusedBatchNormV3/Mul", "op": "Mul", "input": ["StatefulPartitionedCall/functional_27/sequential_155/conv2d_transpose_68/conv2d_transpose", "StatefulPartitionedCall/functional_27/sequential_155/batch_normalization_146/FusedBatchNormV3/Scaled"], "attr": {"T": {"type": "DT_FLOAT"}}}, {"name": "StatefulPartitionedCall/functional_27/sequential_155/batch_normalization_146/FusedBatchNormV3", "op": "Add", "input": ["StatefulPartitionedCall/functional_27/sequential_155/batch_normalization_146/FusedBatchNormV3/Mul", "StatefulPartitionedCall/functional_27/sequential_155/batch_normalization_146/FusedBatchNormV3/Offset"], "attr": {"T": {"type": "DT_FLOAT"}}}, {"name": "StatefulPartitionedCall/functional_27/sequential_155/re_lu_60/Relu", "op": "Relu", "input": ["StatefulPartitionedCall/functional_27/sequential_155/batch_normalization_146/FusedBatchNormV3"], "attr": {"T": {"type": "DT_FLOAT"}}}, {"name": "StatefulPartitionedCall/functional_27/concatenate_61/concat", "op": "ConcatV2", "input": ["StatefulPartitionedCall/functional_27/sequential_155/re_lu_60/Relu", "StatefulPartitionedCall/functional_27/sequential_153/leaky_re_lu_98/LeakyRelu", "StatefulPartitionedCall/functional_27/concatenate_61/concat/axis"], "attr": {"Tidx": {"type": "DT_INT32"}, "N": {"i": "2"}, "T": {"type": "DT_FLOAT"}}}, {"name": "StatefulPartitionedCall/functional_27/sequential_156/conv2d_transpose_69/Shape", "op": "Shape", "input": ["StatefulPartitionedCall/functional_27/concatenate_61/concat"], "attr": {"T": {"type": "DT_FLOAT"}, "out_type": {"type": "DT_INT32"}}}, {"name": "StatefulPartitionedCall/functional_27/sequential_156/conv2d_transpose_69/strided_slice", "op": "StridedSlice", "input": ["StatefulPartitionedCall/functional_27/sequential_156/conv2d_transpose_69/Shape", "StatefulPartitionedCall/functional_27/sequential_156/conv2d_transpose_69/strided_slice/stack", "StatefulPartitionedCall/functional_27/sequential_156/conv2d_transpose_69/strided_slice/stack_1", "StatefulPartitionedCall/functional_27/sequential_156/conv2d_transpose_69/strided_slice/stack_2"], "attr": {"shrink_axis_mask": {"i": "1"}, "end_mask": {"i": "0"}, "ellipsis_mask": {"i": "0"}, "begin_mask": {"i": "0"}, "T": {"type": "DT_INT32"}, "Index": {"type": "DT_INT32"}, "new_axis_mask": {"i": "0"}}}, {"name": "StatefulPartitionedCall/functional_27/sequential_156/conv2d_transpose_69/stack", "op": "Pack", "input": ["StatefulPartitionedCall/functional_27/sequential_156/conv2d_transpose_69/strided_slice", "StatefulPartitionedCall/functional_27/sequential_156/conv2d_transpose_69/stack/1", "StatefulPartitionedCall/functional_27/sequential_156/conv2d_transpose_69/stack/2", "StatefulPartitionedCall/functional_27/sequential_156/conv2d_transpose_69/stack/3"], "attr": {"N": {"i": "4"}, "axis": {"i": "0"}, "T": {"type": "DT_INT32"}}}, {"name": "StatefulPartitionedCall/functional_27/sequential_156/conv2d_transpose_69/conv2d_transpose", "op": "Conv2DBackpropInput", "input": ["StatefulPartitionedCall/functional_27/sequential_156/conv2d_transpose_69/stack", "unknown_40", "StatefulPartitionedCall/functional_27/concatenate_61/concat"], "attr": {"padding": {"s": "U0FNRQ=="}, "T": {"type": "DT_FLOAT"}, "strides": {"list": {"i": ["1", "2", "2", "1"]}}, "dilations": {"list": {"i": ["1", "1", "1", "1"]}}, "data_format": {"s": "TkhXQw=="}, "explicit_paddings": {"list": {}}, "use_cudnn_on_gpu": {"b": true}}}, {"name": "StatefulPartitionedCall/functional_27/sequential_156/batch_normalization_147/FusedBatchNormV3/Mul", "op": "Mul", "input": ["StatefulPartitionedCall/functional_27/sequential_156/conv2d_transpose_69/conv2d_transpose", "StatefulPartitionedCall/functional_27/sequential_156/batch_normalization_147/FusedBatchNormV3/Scaled"], "attr": {"T": {"type": "DT_FLOAT"}}}, {"name": "StatefulPartitionedCall/functional_27/sequential_156/batch_normalization_147/FusedBatchNormV3", "op": "Add", "input": ["StatefulPartitionedCall/functional_27/sequential_156/batch_normalization_147/FusedBatchNormV3/Mul", "StatefulPartitionedCall/functional_27/sequential_156/batch_normalization_147/FusedBatchNormV3/Offset"], "attr": {"T": {"type": "DT_FLOAT"}}}, {"name": "StatefulPartitionedCall/functional_27/sequential_156/re_lu_61/Relu", "op": "Relu", "input": ["StatefulPartitionedCall/functional_27/sequential_156/batch_normalization_147/FusedBatchNormV3"], "attr": {"T": {"type": "DT_FLOAT"}}}, {"name": "StatefulPartitionedCall/functional_27/concatenate_62/concat", "op": "ConcatV2", "input": ["StatefulPartitionedCall/functional_27/sequential_156/re_lu_61/Relu", "StatefulPartitionedCall/functional_27/sequential_152/leaky_re_lu_97/LeakyRelu", "StatefulPartitionedCall/functional_27/concatenate_62/concat/axis"], "attr": {"N": {"i": "2"}, "Tidx": {"type": "DT_INT32"}, "T": {"type": "DT_FLOAT"}}}, {"name": "StatefulPartitionedCall/functional_27/sequential_157/conv2d_transpose_70/Shape", "op": "Shape", "input": ["StatefulPartitionedCall/functional_27/concatenate_62/concat"], "attr": {"out_type": {"type": "DT_INT32"}, "T": {"type": "DT_FLOAT"}}}, {"name": "StatefulPartitionedCall/functional_27/sequential_157/conv2d_transpose_70/strided_slice", "op": "StridedSlice", "input": ["StatefulPartitionedCall/functional_27/sequential_157/conv2d_transpose_70/Shape", "StatefulPartitionedCall/functional_27/sequential_157/conv2d_transpose_70/strided_slice/stack", "StatefulPartitionedCall/functional_27/sequential_157/conv2d_transpose_70/strided_slice/stack_1", "StatefulPartitionedCall/functional_27/sequential_157/conv2d_transpose_70/strided_slice/stack_2"], "attr": {"T": {"type": "DT_INT32"}, "ellipsis_mask": {"i": "0"}, "end_mask": {"i": "0"}, "Index": {"type": "DT_INT32"}, "begin_mask": {"i": "0"}, "new_axis_mask": {"i": "0"}, "shrink_axis_mask": {"i": "1"}}}, {"name": "StatefulPartitionedCall/functional_27/sequential_157/conv2d_transpose_70/stack", "op": "Pack", "input": ["StatefulPartitionedCall/functional_27/sequential_157/conv2d_transpose_70/strided_slice", "StatefulPartitionedCall/functional_27/sequential_157/conv2d_transpose_70/stack/1", "StatefulPartitionedCall/functional_27/sequential_157/conv2d_transpose_70/stack/2", "StatefulPartitionedCall/functional_27/sequential_157/conv2d_transpose_70/stack/3"], "attr": {"axis": {"i": "0"}, "N": {"i": "4"}, "T": {"type": "DT_INT32"}}}, {"name": "StatefulPartitionedCall/functional_27/sequential_157/conv2d_transpose_70/conv2d_transpose", "op": "Conv2DBackpropInput", "input": ["StatefulPartitionedCall/functional_27/sequential_157/conv2d_transpose_70/stack", "unknown_45", "StatefulPartitionedCall/functional_27/concatenate_62/concat"], "attr": {"T": {"type": "DT_FLOAT"}, "use_cudnn_on_gpu": {"b": true}, "dilations": {"list": {"i": ["1", "1", "1", "1"]}}, "data_format": {"s": "TkhXQw=="}, "explicit_paddings": {"list": {}}, "padding": {"s": "U0FNRQ=="}, "strides": {"list": {"i": ["1", "2", "2", "1"]}}}}, {"name": "StatefulPartitionedCall/functional_27/sequential_157/batch_normalization_148/FusedBatchNormV3/Mul", "op": "Mul", "input": ["StatefulPartitionedCall/functional_27/sequential_157/conv2d_transpose_70/conv2d_transpose", "StatefulPartitionedCall/functional_27/sequential_157/batch_normalization_148/FusedBatchNormV3/Scaled"], "attr": {"T": {"type": "DT_FLOAT"}}}, {"name": "StatefulPartitionedCall/functional_27/sequential_157/batch_normalization_148/FusedBatchNormV3", "op": "Add", "input": ["StatefulPartitionedCall/functional_27/sequential_157/batch_normalization_148/FusedBatchNormV3/Mul", "StatefulPartitionedCall/functional_27/sequential_157/batch_normalization_148/FusedBatchNormV3/Offset"], "attr": {"T": {"type": "DT_FLOAT"}}}, {"name": "StatefulPartitionedCall/functional_27/sequential_157/re_lu_62/Relu", "op": "Relu", "input": ["StatefulPartitionedCall/functional_27/sequential_157/batch_normalization_148/FusedBatchNormV3"], "attr": {"T": {"type": "DT_FLOAT"}}}, {"name": "StatefulPartitionedCall/functional_27/concatenate_63/concat", "op": "ConcatV2", "input": ["StatefulPartitionedCall/functional_27/sequential_157/re_lu_62/Relu", "StatefulPartitionedCall/functional_27/sequential_151/leaky_re_lu_96/LeakyRelu", "StatefulPartitionedCall/functional_27/concatenate_63/concat/axis"], "attr": {"N": {"i": "2"}, "T": {"type": "DT_FLOAT"}, "Tidx": {"type": "DT_INT32"}}}, {"name": "StatefulPartitionedCall/functional_27/sequential_158/conv2d_transpose_71/Shape", "op": "Shape", "input": ["StatefulPartitionedCall/functional_27/concatenate_63/concat"], "attr": {"out_type": {"type": "DT_INT32"}, "T": {"type": "DT_FLOAT"}}}, {"name": "StatefulPartitionedCall/functional_27/sequential_158/conv2d_transpose_71/strided_slice", "op": "StridedSlice", "input": ["StatefulPartitionedCall/functional_27/sequential_158/conv2d_transpose_71/Shape", "StatefulPartitionedCall/functional_27/sequential_158/conv2d_transpose_71/strided_slice/stack", "StatefulPartitionedCall/functional_27/sequential_158/conv2d_transpose_71/strided_slice/stack_1", "StatefulPartitionedCall/functional_27/sequential_158/conv2d_transpose_71/strided_slice/stack_2"], "attr": {"T": {"type": "DT_INT32"}, "new_axis_mask": {"i": "0"}, "shrink_axis_mask": {"i": "1"}, "ellipsis_mask": {"i": "0"}, "begin_mask": {"i": "0"}, "end_mask": {"i": "0"}, "Index": {"type": "DT_INT32"}}}, {"name": "StatefulPartitionedCall/functional_27/sequential_158/conv2d_transpose_71/stack", "op": "Pack", "input": ["StatefulPartitionedCall/functional_27/sequential_158/conv2d_transpose_71/strided_slice", "StatefulPartitionedCall/functional_27/sequential_158/conv2d_transpose_71/stack/1", "StatefulPartitionedCall/functional_27/sequential_158/conv2d_transpose_71/stack/2", "StatefulPartitionedCall/functional_27/sequential_158/conv2d_transpose_71/stack/3"], "attr": {"N": {"i": "4"}, "T": {"type": "DT_INT32"}, "axis": {"i": "0"}}}, {"name": "StatefulPartitionedCall/functional_27/sequential_158/conv2d_transpose_71/conv2d_transpose", "op": "Conv2DBackpropInput", "input": ["StatefulPartitionedCall/functional_27/sequential_158/conv2d_transpose_71/stack", "unknown_50", "StatefulPartitionedCall/functional_27/concatenate_63/concat"], "attr": {"padding": {"s": "U0FNRQ=="}, "data_format": {"s": "TkhXQw=="}, "strides": {"list": {"i": ["1", "2", "2", "1"]}}, "T": {"type": "DT_FLOAT"}, "explicit_paddings": {"list": {}}, "dilations": {"list": {"i": ["1", "1", "1", "1"]}}, "use_cudnn_on_gpu": {"b": true}}}, {"name": "StatefulPartitionedCall/functional_27/sequential_158/batch_normalization_149/FusedBatchNormV3/Mul", "op": "Mul", "input": ["StatefulPartitionedCall/functional_27/sequential_158/conv2d_transpose_71/conv2d_transpose", "StatefulPartitionedCall/functional_27/sequential_158/batch_normalization_149/FusedBatchNormV3/Scaled"], "attr": {"T": {"type": "DT_FLOAT"}}}, {"name": "StatefulPartitionedCall/functional_27/sequential_158/batch_normalization_149/FusedBatchNormV3", "op": "Add", "input": ["StatefulPartitionedCall/functional_27/sequential_158/batch_normalization_149/FusedBatchNormV3/Mul", "StatefulPartitionedCall/functional_27/sequential_158/batch_normalization_149/FusedBatchNormV3/Offset"], "attr": {"T": {"type": "DT_FLOAT"}}}, {"name": "StatefulPartitionedCall/functional_27/sequential_158/re_lu_63/Relu", "op": "Relu", "input": ["StatefulPartitionedCall/functional_27/sequential_158/batch_normalization_149/FusedBatchNormV3"], "attr": {"T": {"type": "DT_FLOAT"}}}, {"name": "StatefulPartitionedCall/functional_27/concatenate_64/concat", "op": "ConcatV2", "input": ["StatefulPartitionedCall/functional_27/sequential_158/re_lu_63/Relu", "StatefulPartitionedCall/functional_27/sequential_150/leaky_re_lu_95/LeakyRelu", "StatefulPartitionedCall/functional_27/concatenate_64/concat/axis"], "attr": {"Tidx": {"type": "DT_INT32"}, "N": {"i": "2"}, "T": {"type": "DT_FLOAT"}}}, {"name": "StatefulPartitionedCall/functional_27/sequential_159/conv2d_transpose_72/Shape", "op": "Shape", "input": ["StatefulPartitionedCall/functional_27/concatenate_64/concat"], "attr": {"T": {"type": "DT_FLOAT"}, "out_type": {"type": "DT_INT32"}}}, {"name": "StatefulPartitionedCall/functional_27/sequential_159/conv2d_transpose_72/strided_slice", "op": "StridedSlice", "input": ["StatefulPartitionedCall/functional_27/sequential_159/conv2d_transpose_72/Shape", "StatefulPartitionedCall/functional_27/sequential_159/conv2d_transpose_72/strided_slice/stack", "StatefulPartitionedCall/functional_27/sequential_159/conv2d_transpose_72/strided_slice/stack_1", "StatefulPartitionedCall/functional_27/sequential_159/conv2d_transpose_72/strided_slice/stack_2"], "attr": {"T": {"type": "DT_INT32"}, "begin_mask": {"i": "0"}, "shrink_axis_mask": {"i": "1"}, "Index": {"type": "DT_INT32"}, "end_mask": {"i": "0"}, "ellipsis_mask": {"i": "0"}, "new_axis_mask": {"i": "0"}}}, {"name": "StatefulPartitionedCall/functional_27/sequential_159/conv2d_transpose_72/stack", "op": "Pack", "input": ["StatefulPartitionedCall/functional_27/sequential_159/conv2d_transpose_72/strided_slice", "StatefulPartitionedCall/functional_27/sequential_159/conv2d_transpose_72/stack/1", "StatefulPartitionedCall/functional_27/sequential_159/conv2d_transpose_72/stack/2", "StatefulPartitionedCall/functional_27/sequential_159/conv2d_transpose_72/stack/3"], "attr": {"axis": {"i": "0"}, "N": {"i": "4"}, "T": {"type": "DT_INT32"}}}, {"name": "StatefulPartitionedCall/functional_27/sequential_159/conv2d_transpose_72/conv2d_transpose", "op": "Conv2DBackpropInput", "input": ["StatefulPartitionedCall/functional_27/sequential_159/conv2d_transpose_72/stack", "unknown_55", "StatefulPartitionedCall/functional_27/concatenate_64/concat"], "attr": {"explicit_paddings": {"list": {}}, "T": {"type": "DT_FLOAT"}, "data_format": {"s": "TkhXQw=="}, "use_cudnn_on_gpu": {"b": true}, "strides": {"list": {"i": ["1", "2", "2", "1"]}}, "padding": {"s": "U0FNRQ=="}, "dilations": {"list": {"i": ["1", "1", "1", "1"]}}}}, {"name": "StatefulPartitionedCall/functional_27/sequential_159/batch_normalization_150/FusedBatchNormV3/Mul", "op": "Mul", "input": ["StatefulPartitionedCall/functional_27/sequential_159/conv2d_transpose_72/conv2d_transpose", "StatefulPartitionedCall/functional_27/sequential_159/batch_normalization_150/FusedBatchNormV3/Scaled"], "attr": {"T": {"type": "DT_FLOAT"}}}, {"name": "StatefulPartitionedCall/functional_27/sequential_159/batch_normalization_150/FusedBatchNormV3", "op": "Add", "input": ["StatefulPartitionedCall/functional_27/sequential_159/batch_normalization_150/FusedBatchNormV3/Mul", "StatefulPartitionedCall/functional_27/sequential_159/batch_normalization_150/FusedBatchNormV3/Offset"], "attr": {"T": {"type": "DT_FLOAT"}}}, {"name": "StatefulPartitionedCall/functional_27/sequential_159/re_lu_64/Relu", "op": "Relu", "input": ["StatefulPartitionedCall/functional_27/sequential_159/batch_normalization_150/FusedBatchNormV3"], "attr": {"T": {"type": "DT_FLOAT"}}}, {"name": "StatefulPartitionedCall/functional_27/concatenate_65/concat", "op": "ConcatV2", "input": ["StatefulPartitionedCall/functional_27/sequential_159/re_lu_64/Relu", "StatefulPartitionedCall/functional_27/sequential_149/leaky_re_lu_94/LeakyRelu", "StatefulPartitionedCall/functional_27/concatenate_65/concat/axis"], "attr": {"Tidx": {"type": "DT_INT32"}, "T": {"type": "DT_FLOAT"}, "N": {"i": "2"}}}, {"name": "StatefulPartitionedCall/functional_27/sequential_160/conv2d_transpose_73/Shape", "op": "Shape", "input": ["StatefulPartitionedCall/functional_27/concatenate_65/concat"], "attr": {"T": {"type": "DT_FLOAT"}, "out_type": {"type": "DT_INT32"}}}, {"name": "StatefulPartitionedCall/functional_27/sequential_160/conv2d_transpose_73/strided_slice", "op": "StridedSlice", "input": ["StatefulPartitionedCall/functional_27/sequential_160/conv2d_transpose_73/Shape", "StatefulPartitionedCall/functional_27/sequential_160/conv2d_transpose_73/strided_slice/stack", "StatefulPartitionedCall/functional_27/sequential_160/conv2d_transpose_73/strided_slice/stack_1", "StatefulPartitionedCall/functional_27/sequential_160/conv2d_transpose_73/strided_slice/stack_2"], "attr": {"begin_mask": {"i": "0"}, "T": {"type": "DT_INT32"}, "shrink_axis_mask": {"i": "1"}, "Index": {"type": "DT_INT32"}, "new_axis_mask": {"i": "0"}, "ellipsis_mask": {"i": "0"}, "end_mask": {"i": "0"}}}, {"name": "StatefulPartitionedCall/functional_27/sequential_160/conv2d_transpose_73/stack", "op": "Pack", "input": ["StatefulPartitionedCall/functional_27/sequential_160/conv2d_transpose_73/strided_slice", "StatefulPartitionedCall/functional_27/sequential_160/conv2d_transpose_73/stack/1", "StatefulPartitionedCall/functional_27/sequential_160/conv2d_transpose_73/stack/2", "StatefulPartitionedCall/functional_27/sequential_160/conv2d_transpose_73/stack/3"], "attr": {"axis": {"i": "0"}, "N": {"i": "4"}, "T": {"type": "DT_INT32"}}}, {"name": "StatefulPartitionedCall/functional_27/sequential_160/conv2d_transpose_73/conv2d_transpose", "op": "Conv2DBackpropInput", "input": ["StatefulPartitionedCall/functional_27/sequential_160/conv2d_transpose_73/stack", "unknown_60", "StatefulPartitionedCall/functional_27/concatenate_65/concat"], "attr": {"explicit_paddings": {"list": {}}, "strides": {"list": {"i": ["1", "2", "2", "1"]}}, "data_format": {"s": "TkhXQw=="}, "dilations": {"list": {"i": ["1", "1", "1", "1"]}}, "padding": {"s": "U0FNRQ=="}, "use_cudnn_on_gpu": {"b": true}, "T": {"type": "DT_FLOAT"}}}, {"name": "StatefulPartitionedCall/functional_27/sequential_160/batch_normalization_151/FusedBatchNormV3/Mul", "op": "Mul", "input": ["StatefulPartitionedCall/functional_27/sequential_160/conv2d_transpose_73/conv2d_transpose", "StatefulPartitionedCall/functional_27/sequential_160/batch_normalization_151/FusedBatchNormV3/Scaled"], "attr": {"T": {"type": "DT_FLOAT"}}}, {"name": "StatefulPartitionedCall/functional_27/sequential_160/batch_normalization_151/FusedBatchNormV3", "op": "Add", "input": ["StatefulPartitionedCall/functional_27/sequential_160/batch_normalization_151/FusedBatchNormV3/Mul", "StatefulPartitionedCall/functional_27/sequential_160/batch_normalization_151/FusedBatchNormV3/Offset"], "attr": {"T": {"type": "DT_FLOAT"}}}, {"name": "StatefulPartitionedCall/functional_27/sequential_160/re_lu_65/Relu", "op": "Relu", "input": ["StatefulPartitionedCall/functional_27/sequential_160/batch_normalization_151/FusedBatchNormV3"], "attr": {"T": {"type": "DT_FLOAT"}}}, {"name": "StatefulPartitionedCall/functional_27/concatenate_66/concat", "op": "ConcatV2", "input": ["StatefulPartitionedCall/functional_27/sequential_160/re_lu_65/Relu", "StatefulPartitionedCall/functional_27/sequential_148/leaky_re_lu_93/LeakyRelu", "StatefulPartitionedCall/functional_27/concatenate_66/concat/axis"], "attr": {"T": {"type": "DT_FLOAT"}, "N": {"i": "2"}, "Tidx": {"type": "DT_INT32"}}}, {"name": "StatefulPartitionedCall/functional_27/sequential_161/conv2d_transpose_74/Shape", "op": "Shape", "input": ["StatefulPartitionedCall/functional_27/concatenate_66/concat"], "attr": {"T": {"type": "DT_FLOAT"}, "out_type": {"type": "DT_INT32"}}}, {"name": "StatefulPartitionedCall/functional_27/sequential_161/conv2d_transpose_74/strided_slice", "op": "StridedSlice", "input": ["StatefulPartitionedCall/functional_27/sequential_161/conv2d_transpose_74/Shape", "StatefulPartitionedCall/functional_27/sequential_161/conv2d_transpose_74/strided_slice/stack", "StatefulPartitionedCall/functional_27/sequential_161/conv2d_transpose_74/strided_slice/stack_1", "StatefulPartitionedCall/functional_27/sequential_161/conv2d_transpose_74/strided_slice/stack_2"], "attr": {"Index": {"type": "DT_INT32"}, "end_mask": {"i": "0"}, "begin_mask": {"i": "0"}, "T": {"type": "DT_INT32"}, "shrink_axis_mask": {"i": "1"}, "ellipsis_mask": {"i": "0"}, "new_axis_mask": {"i": "0"}}}, {"name": "StatefulPartitionedCall/functional_27/sequential_161/conv2d_transpose_74/stack", "op": "Pack", "input": ["StatefulPartitionedCall/functional_27/sequential_161/conv2d_transpose_74/strided_slice", "StatefulPartitionedCall/functional_27/sequential_161/conv2d_transpose_74/stack/1", "StatefulPartitionedCall/functional_27/sequential_161/conv2d_transpose_74/stack/2", "StatefulPartitionedCall/functional_27/sequential_161/conv2d_transpose_74/stack/3"], "attr": {"T": {"type": "DT_INT32"}, "N": {"i": "4"}, "axis": {"i": "0"}}}, {"name": "StatefulPartitionedCall/functional_27/sequential_161/conv2d_transpose_74/conv2d_transpose", "op": "Conv2DBackpropInput", "input": ["StatefulPartitionedCall/functional_27/sequential_161/conv2d_transpose_74/stack", "unknown_65", "StatefulPartitionedCall/functional_27/concatenate_66/concat"], "attr": {"explicit_paddings": {"list": {}}, "padding": {"s": "U0FNRQ=="}, "dilations": {"list": {"i": ["1", "1", "1", "1"]}}, "data_format": {"s": "TkhXQw=="}, "use_cudnn_on_gpu": {"b": true}, "T": {"type": "DT_FLOAT"}, "strides": {"list": {"i": ["1", "2", "2", "1"]}}}}, {"name": "StatefulPartitionedCall/functional_27/sequential_161/batch_normalization_152/FusedBatchNormV3/Mul", "op": "Mul", "input": ["StatefulPartitionedCall/functional_27/sequential_161/conv2d_transpose_74/conv2d_transpose", "StatefulPartitionedCall/functional_27/sequential_161/batch_normalization_152/FusedBatchNormV3/Scaled"], "attr": {"T": {"type": "DT_FLOAT"}}}, {"name": "StatefulPartitionedCall/functional_27/sequential_161/batch_normalization_152/FusedBatchNormV3", "op": "Add", "input": ["StatefulPartitionedCall/functional_27/sequential_161/batch_normalization_152/FusedBatchNormV3/Mul", "StatefulPartitionedCall/functional_27/sequential_161/batch_normalization_152/FusedBatchNormV3/Offset"], "attr": {"T": {"type": "DT_FLOAT"}}}, {"name": "StatefulPartitionedCall/functional_27/sequential_161/re_lu_66/Relu", "op": "Relu", "input": ["StatefulPartitionedCall/functional_27/sequential_161/batch_normalization_152/FusedBatchNormV3"], "attr": {"T": {"type": "DT_FLOAT"}}}, {"name": "StatefulPartitionedCall/functional_27/concatenate_67/concat", "op": "ConcatV2", "input": ["StatefulPartitionedCall/functional_27/sequential_161/re_lu_66/Relu", "StatefulPartitionedCall/functional_27/sequential_147/leaky_re_lu_92/LeakyRelu", "StatefulPartitionedCall/functional_27/concatenate_67/concat/axis"], "attr": {"Tidx": {"type": "DT_INT32"}, "N": {"i": "2"}, "T": {"type": "DT_FLOAT"}}}, {"name": "StatefulPartitionedCall/functional_27/conv2d_transpose_75/Shape", "op": "Shape", "input": ["StatefulPartitionedCall/functional_27/concatenate_67/concat"], "attr": {"out_type": {"type": "DT_INT32"}, "T": {"type": "DT_FLOAT"}}}, {"name": "StatefulPartitionedCall/functional_27/conv2d_transpose_75/strided_slice", "op": "StridedSlice", "input": ["StatefulPartitionedCall/functional_27/conv2d_transpose_75/Shape", "StatefulPartitionedCall/functional_27/conv2d_transpose_75/strided_slice/stack", "StatefulPartitionedCall/functional_27/conv2d_transpose_75/strided_slice/stack_1", "StatefulPartitionedCall/functional_27/conv2d_transpose_75/strided_slice/stack_2"], "attr": {"Index": {"type": "DT_INT32"}, "T": {"type": "DT_INT32"}, "new_axis_mask": {"i": "0"}, "ellipsis_mask": {"i": "0"}, "shrink_axis_mask": {"i": "1"}, "begin_mask": {"i": "0"}, "end_mask": {"i": "0"}}}, {"name": "StatefulPartitionedCall/functional_27/conv2d_transpose_75/stack", "op": "Pack", "input": ["StatefulPartitionedCall/functional_27/conv2d_transpose_75/strided_slice", "StatefulPartitionedCall/functional_27/conv2d_transpose_75/stack/1", "StatefulPartitionedCall/functional_27/conv2d_transpose_75/stack/2", "StatefulPartitionedCall/functional_27/conv2d_transpose_75/stack/3"], "attr": {"N": {"i": "4"}, "T": {"type": "DT_INT32"}, "axis": {"i": "0"}}}, {"name": "StatefulPartitionedCall/functional_27/conv2d_transpose_75/conv2d_transpose", "op": "Conv2DBackpropInput", "input": ["StatefulPartitionedCall/functional_27/conv2d_transpose_75/stack", "unknown_70", "StatefulPartitionedCall/functional_27/concatenate_67/concat"], "attr": {"data_format": {"s": "TkhXQw=="}, "dilations": {"list": {"i": ["1", "1", "1", "1"]}}, "explicit_paddings": {"list": {}}, "use_cudnn_on_gpu": {"b": true}, "strides": {"list": {"i": ["1", "2", "2", "1"]}}, "padding": {"s": "U0FNRQ=="}, "T": {"type": "DT_FLOAT"}}}, {"name": "StatefulPartitionedCall/functional_27/conv2d_transpose_75/BiasAdd", "op": "BiasAdd", "input": ["StatefulPartitionedCall/functional_27/conv2d_transpose_75/conv2d_transpose", "unknown_71"], "attr": {"data_format": {"s": "TkhXQw=="}, "T": {"type": "DT_FLOAT"}}}, {"name": "StatefulPartitionedCall/functional_27/conv2d_transpose_75/Tanh", "op": "Tanh", "input": ["StatefulPartitionedCall/functional_27/conv2d_transpose_75/BiasAdd"], "attr": {"T": {"type": "DT_FLOAT"}}}, {"name": "Identity", "op": "Identity", "input": ["StatefulPartitionedCall/functional_27/conv2d_transpose_75/Tanh"], "attr": {"T": {"type": "DT_FLOAT"}}}], "library": {}, "versions": {"producer": 440}}, "weightsManifest": [{"paths": ["group1-shard1of52.bin", "group1-shard2of52.bin", "group1-shard3of52.bin", "group1-shard4of52.bin", "group1-shard5of52.bin", "group1-shard6of52.bin", "group1-shard7of52.bin", "group1-shard8of52.bin", "group1-shard9of52.bin", "group1-shard10of52.bin", "group1-shard11of52.bin", "group1-shard12of52.bin", "group1-shard13of52.bin", "group1-shard14of52.bin", "group1-shard15of52.bin", "group1-shard16of52.bin", "group1-shard17of52.bin", "group1-shard18of52.bin", "group1-shard19of52.bin", "group1-shard20of52.bin", "group1-shard21of52.bin", "group1-shard22of52.bin", "group1-shard23of52.bin", "group1-shard24of52.bin", "group1-shard25of52.bin", "group1-shard26of52.bin", "group1-shard27of52.bin", "group1-shard28of52.bin", "group1-shard29of52.bin", "group1-shard30of52.bin", "group1-shard31of52.bin", "group1-shard32of52.bin", "group1-shard33of52.bin", "group1-shard34of52.bin", "group1-shard35of52.bin", "group1-shard36of52.bin", "group1-shard37of52.bin", "group1-shard38of52.bin", "group1-shard39of52.bin", "group1-shard40of52.bin", "group1-shard41of52.bin", "group1-shard42of52.bin", "group1-shard43of52.bin", "group1-shard44of52.bin", "group1-shard45of52.bin", "group1-shard46of52.bin", "group1-shard47of52.bin", "group1-shard48of52.bin", "group1-shard49of52.bin", "group1-shard50of52.bin", "group1-shard51of52.bin", "group1-shard52of52.bin"], "weights": [{"name": "StatefulPartitionedCall/functional_27/conv2d_transpose_75/strided_slice/stack", "shape": [1], "dtype": "int32"}, {"name": "StatefulPartitionedCall/functional_27/conv2d_transpose_75/strided_slice/stack_1", "shape": [1], "dtype": "int32"}, {"name": "StatefulPartitionedCall/functional_27/conv2d_transpose_75/strided_slice/stack_2", "shape": [1], "dtype": "int32"}, {"name": "StatefulPartitionedCall/functional_27/conv2d_transpose_75/stack/1", "shape": [], "dtype": "int32"}, {"name": "StatefulPartitionedCall/functional_27/conv2d_transpose_75/stack/2", "shape": [], "dtype": "int32"}, {"name": "StatefulPartitionedCall/functional_27/conv2d_transpose_75/stack/3", "shape": [], "dtype": "int32"}, {"name": "unknown_70", "shape": [4, 4, 3, 128], "dtype": "float32"}, {"name": "StatefulPartitionedCall/functional_27/sequential_161/conv2d_transpose_74/strided_slice/stack", "shape": [1], "dtype": "int32"}, {"name": "StatefulPartitionedCall/functional_27/sequential_161/conv2d_transpose_74/strided_slice/stack_1", "shape": [1], "dtype": "int32"}, {"name": "StatefulPartitionedCall/functional_27/sequential_161/conv2d_transpose_74/strided_slice/stack_2", "shape": [1], "dtype": "int32"}, {"name": "StatefulPartitionedCall/functional_27/sequential_161/conv2d_transpose_74/stack/1", "shape": [], "dtype": "int32"}, {"name": "StatefulPartitionedCall/functional_27/sequential_161/conv2d_transpose_74/stack/2", "shape": [], "dtype": "int32"}, {"name": "StatefulPartitionedCall/functional_27/sequential_161/conv2d_transpose_74/stack/3", "shape": [], "dtype": "int32"}, {"name": "unknown_65", "shape": [4, 4, 64, 256], "dtype": "float32"}, {"name": "StatefulPartitionedCall/functional_27/sequential_160/conv2d_transpose_73/strided_slice/stack", "shape": [1], "dtype": "int32"}, {"name": "StatefulPartitionedCall/functional_27/sequential_160/conv2d_transpose_73/strided_slice/stack_1", "shape": [1], "dtype": "int32"}, {"name": "StatefulPartitionedCall/functional_27/sequential_160/conv2d_transpose_73/strided_slice/stack_2", "shape": [1], "dtype": "int32"}, {"name": "StatefulPartitionedCall/functional_27/sequential_160/conv2d_transpose_73/stack/1", "shape": [], "dtype": "int32"}, {"name": "StatefulPartitionedCall/functional_27/sequential_160/conv2d_transpose_73/stack/2", "shape": [], "dtype": "int32"}, {"name": "StatefulPartitionedCall/functional_27/sequential_160/conv2d_transpose_73/stack/3", "shape": [], "dtype": "int32"}, {"name": "unknown_60", "shape": [4, 4, 128, 512], "dtype": "float32"}, {"name": "StatefulPartitionedCall/functional_27/sequential_159/conv2d_transpose_72/strided_slice/stack", "shape": [1], "dtype": "int32"}, {"name": "StatefulPartitionedCall/functional_27/sequential_159/conv2d_transpose_72/strided_slice/stack_1", "shape": [1], "dtype": "int32"}, {"name": "StatefulPartitionedCall/functional_27/sequential_159/conv2d_transpose_72/strided_slice/stack_2", "shape": [1], "dtype": "int32"}, {"name": "StatefulPartitionedCall/functional_27/sequential_159/conv2d_transpose_72/stack/1", "shape": [], "dtype": "int32"}, {"name": "StatefulPartitionedCall/functional_27/sequential_159/conv2d_transpose_72/stack/2", "shape": [], "dtype": "int32"}, {"name": "StatefulPartitionedCall/functional_27/sequential_159/conv2d_transpose_72/stack/3", "shape": [], "dtype": "int32"}, {"name": "unknown_55", "shape": [4, 4, 256, 1024], "dtype": "float32"}, {"name": "StatefulPartitionedCall/functional_27/sequential_158/conv2d_transpose_71/strided_slice/stack", "shape": [1], "dtype": "int32"}, {"name": "StatefulPartitionedCall/functional_27/sequential_158/conv2d_transpose_71/strided_slice/stack_1", "shape": [1], "dtype": "int32"}, {"name": "StatefulPartitionedCall/functional_27/sequential_158/conv2d_transpose_71/strided_slice/stack_2", "shape": [1], "dtype": "int32"}, {"name": "StatefulPartitionedCall/functional_27/sequential_158/conv2d_transpose_71/stack/1", "shape": [], "dtype": "int32"}, {"name": "StatefulPartitionedCall/functional_27/sequential_158/conv2d_transpose_71/stack/2", "shape": [], "dtype": "int32"}, {"name": "StatefulPartitionedCall/functional_27/sequential_158/conv2d_transpose_71/stack/3", "shape": [], "dtype": "int32"}, {"name": "unknown_50", "shape": [4, 4, 512, 1024], "dtype": "float32"}, {"name": "StatefulPartitionedCall/functional_27/sequential_157/conv2d_transpose_70/strided_slice/stack", "shape": [1], "dtype": "int32"}, {"name": "StatefulPartitionedCall/functional_27/sequential_157/conv2d_transpose_70/strided_slice/stack_1", "shape": [1], "dtype": "int32"}, {"name": "StatefulPartitionedCall/functional_27/sequential_157/conv2d_transpose_70/strided_slice/stack_2", "shape": [1], "dtype": "int32"}, {"name": "StatefulPartitionedCall/functional_27/sequential_157/conv2d_transpose_70/stack/1", "shape": [], "dtype": "int32"}, {"name": "StatefulPartitionedCall/functional_27/sequential_157/conv2d_transpose_70/stack/2", "shape": [], "dtype": "int32"}, {"name": "StatefulPartitionedCall/functional_27/sequential_157/conv2d_transpose_70/stack/3", "shape": [], "dtype": "int32"}, {"name": "unknown_45", "shape": [4, 4, 512, 1024], "dtype": "float32"}, {"name": "StatefulPartitionedCall/functional_27/sequential_156/conv2d_transpose_69/strided_slice/stack", "shape": [1], "dtype": "int32"}, {"name": "StatefulPartitionedCall/functional_27/sequential_156/conv2d_transpose_69/strided_slice/stack_1", "shape": [1], "dtype": "int32"}, {"name": "StatefulPartitionedCall/functional_27/sequential_156/conv2d_transpose_69/strided_slice/stack_2", "shape": [1], "dtype": "int32"}, {"name": "StatefulPartitionedCall/functional_27/sequential_156/conv2d_transpose_69/stack/1", "shape": [], "dtype": "int32"}, {"name": "StatefulPartitionedCall/functional_27/sequential_156/conv2d_transpose_69/stack/2", "shape": [], "dtype": "int32"}, {"name": "StatefulPartitionedCall/functional_27/sequential_156/conv2d_transpose_69/stack/3", "shape": [], "dtype": "int32"}, {"name": "unknown_40", "shape": [4, 4, 512, 1024], "dtype": "float32"}, {"name": "StatefulPartitionedCall/functional_27/sequential_155/conv2d_transpose_68/strided_slice/stack", "shape": [1], "dtype": "int32"}, {"name": "StatefulPartitionedCall/functional_27/sequential_155/conv2d_transpose_68/strided_slice/stack_1", "shape": [1], "dtype": "int32"}, {"name": "StatefulPartitionedCall/functional_27/sequential_155/conv2d_transpose_68/strided_slice/stack_2", "shape": [1], "dtype": "int32"}, {"name": "StatefulPartitionedCall/functional_27/sequential_155/conv2d_transpose_68/stack/1", "shape": [], "dtype": "int32"}, {"name": "StatefulPartitionedCall/functional_27/sequential_155/conv2d_transpose_68/stack/2", "shape": [], "dtype": "int32"}, {"name": "StatefulPartitionedCall/functional_27/sequential_155/conv2d_transpose_68/stack/3", "shape": [], "dtype": "int32"}, {"name": "unknown_35", "shape": [4, 4, 512, 512], "dtype": "float32"}, {"name": "StatefulPartitionedCall/functional_27/concatenate_61/concat/axis", "shape": [], "dtype": "int32"}, {"name": "StatefulPartitionedCall/functional_27/concatenate_62/concat/axis", "shape": [], "dtype": "int32"}, {"name": "StatefulPartitionedCall/functional_27/concatenate_63/concat/axis", "shape": [], "dtype": "int32"}, {"name": "StatefulPartitionedCall/functional_27/concatenate_64/concat/axis", "shape": [], "dtype": "int32"}, {"name": "StatefulPartitionedCall/functional_27/concatenate_65/concat/axis", "shape": [], "dtype": "int32"}, {"name": "StatefulPartitionedCall/functional_27/concatenate_66/concat/axis", "shape": [], "dtype": "int32"}, {"name": "unknown", "shape": [4, 4, 1, 64], "dtype": "float32"}, {"name": "StatefulPartitionedCall/functional_27/concatenate_67/concat/axis", "shape": [], "dtype": "int32"}, {"name": "unknown_71", "shape": [3], "dtype": "float32"}, {"name": "StatefulPartitionedCall/functional_27/sequential_148/conv2d_98/Conv2D_weights", "shape": [4, 4, 64, 128], "dtype": "float32"}, {"name": "StatefulPartitionedCall/functional_27/sequential_148/conv2d_98/Conv2D_bn_offset", "shape": [128], "dtype": "float32"}, {"name": "StatefulPartitionedCall/functional_27/sequential_149/conv2d_99/Conv2D_weights", "shape": [4, 4, 128, 256], "dtype": "float32"}, {"name": "StatefulPartitionedCall/functional_27/sequential_149/conv2d_99/Conv2D_bn_offset", "shape": [256], "dtype": "float32"}, {"name": "StatefulPartitionedCall/functional_27/sequential_150/conv2d_100/Conv2D_weights", "shape": [4, 4, 256, 512], "dtype": "float32"}, {"name": "StatefulPartitionedCall/functional_27/sequential_150/conv2d_100/Conv2D_bn_offset", "shape": [512], "dtype": "float32"}, {"name": "StatefulPartitionedCall/functional_27/sequential_151/conv2d_101/Conv2D_weights", "shape": [4, 4, 512, 512], "dtype": "float32"}, {"name": "StatefulPartitionedCall/functional_27/sequential_155/batch_normalization_146/FusedBatchNormV3/Scaled", "shape": [512], "dtype": "float32"}, {"name": "StatefulPartitionedCall/functional_27/sequential_151/conv2d_101/Conv2D_bn_offset", "shape": [512], "dtype": "float32"}, {"name": "StatefulPartitionedCall/functional_27/sequential_152/conv2d_102/Conv2D_weights", "shape": [4, 4, 512, 512], "dtype": "float32"}, {"name": "StatefulPartitionedCall/functional_27/sequential_152/conv2d_102/Conv2D_bn_offset", "shape": [512], "dtype": "float32"}, {"name": "StatefulPartitionedCall/functional_27/sequential_153/conv2d_103/Conv2D_weights", "shape": [4, 4, 512, 512], "dtype": "float32"}, {"name": "StatefulPartitionedCall/functional_27/sequential_153/conv2d_103/Conv2D_bn_offset", "shape": [512], "dtype": "float32"}, {"name": "StatefulPartitionedCall/functional_27/sequential_154/conv2d_104/Conv2D_weights", "shape": [4, 4, 512, 512], "dtype": "float32"}, {"name": "StatefulPartitionedCall/functional_27/sequential_155/batch_normalization_146/FusedBatchNormV3/Offset", "shape": [512], "dtype": "float32"}, {"name": "StatefulPartitionedCall/functional_27/sequential_154/conv2d_104/Conv2D_bn_offset", "shape": [512], "dtype": "float32"}, {"name": "StatefulPartitionedCall/functional_27/sequential_161/batch_normalization_152/FusedBatchNormV3/Scaled", "shape": [64], "dtype": "float32"}, {"name": "StatefulPartitionedCall/functional_27/sequential_161/batch_normalization_152/FusedBatchNormV3/Offset", "shape": [64], "dtype": "float32"}, {"name": "StatefulPartitionedCall/functional_27/sequential_160/batch_normalization_151/FusedBatchNormV3/Scaled", "shape": [128], "dtype": "float32"}, {"name": "StatefulPartitionedCall/functional_27/sequential_160/batch_normalization_151/FusedBatchNormV3/Offset", "shape": [128], "dtype": "float32"}, {"name": "StatefulPartitionedCall/functional_27/sequential_159/batch_normalization_150/FusedBatchNormV3/Scaled", "shape": [256], "dtype": "float32"}, {"name": "StatefulPartitionedCall/functional_27/sequential_159/batch_normalization_150/FusedBatchNormV3/Offset", "shape": [256], "dtype": "float32"}, {"name": "StatefulPartitionedCall/functional_27/sequential_158/batch_normalization_149/FusedBatchNormV3/Scaled", "shape": [512], "dtype": "float32"}, {"name": "StatefulPartitionedCall/functional_27/sequential_158/batch_normalization_149/FusedBatchNormV3/Offset", "shape": [512], "dtype": "float32"}, {"name": "StatefulPartitionedCall/functional_27/sequential_157/batch_normalization_148/FusedBatchNormV3/Scaled", "shape": [512], "dtype": "float32"}, {"name": "StatefulPartitionedCall/functional_27/sequential_157/batch_normalization_148/FusedBatchNormV3/Offset", "shape": [512], "dtype": "float32"}, {"name": "StatefulPartitionedCall/functional_27/sequential_156/batch_normalization_147/FusedBatchNormV3/Scaled", "shape": [512], "dtype": "float32"}, {"name": "StatefulPartitionedCall/functional_27/sequential_156/batch_normalization_147/FusedBatchNormV3/Offset", "shape": [512], "dtype": "float32"}]}]}